model_list/2001/humidity_summer_2001_v3.pth (torch, 5322 bytes, 5 tensors)

conv1.weight f4 [16, 3, 1]
0	0x3ed1e95a	0.40998346
1	0xbbdf63ed	-0.006817332
2	0xbed3c46c	-0.41360795
3	0x3ec498a7	0.38397714
4	0xbbb2dc67	-0.005458403
5	0xbebfc24b	-0.3745292
6	0xbeeebaba	-0.46626836
7	0x3c29b224	0.010357413
8	0x3eea9760	0.45818615
9	0x3ebe05ac	0.37113702
10	0xbc067a4d	-0.00820787
11	0xbeb1c2cc	-0.3471893
12	0x3ed7cf51	0.42150357
13	0xbb993e9f	-0.0046766545
14	0xbed33656	-0.41252393
15	0x3eee5927	0.46552393
16	0xbb9480ed	-0.0045319707
17	0xbee7c73a	-0.45269185
18	0x3f13f8ef	0.5780172
19	0xbf183052	-0.5944873
20	0xbf29b998	-0.6629882
21	0xbe022e14	-0.1271289
22	0x3c53d812	0.012929933
23	0x3dbcefa7	0.092253976
24	0xbedda995	-0.43293443
25	0x3bfefb98	0.007781457
26	0x3ee31d8b	0.44358477
27	0x3de2f16c	0.11081204
28	0xbbb0251d	-0.005375518
29	0xbdbf9738	-0.093550146
30	0x3f280c31	0.656436
31	0xbe0bb0db	-0.13641684
32	0xbeb8f9c9	-0.3612807
33	0x3d597875	0.053093392
34	0xbafb298f	-0.0019162166
35	0xbdb51f45	-0.08843855
36	0x3e5f99c5	0.21836002
37	0xbb985e2e	-0.004649899
38	0xbe64f7ee	-0.22360203
39	0x3e91978d	0.28435937
40	0xbc7052ef	-0.01466821
41	0xbe98cf75	-0.29845777
42	0xbe6592e2	-0.22419313
43	0x3bbe297b	0.0058032847
44	0x3e4a3a87	0.19748889
45	0x3e6229d1	0.22086264
46	0xbc280cc2	-0.010256948
47	0xbe63bb24	-0.22239357

conv1.bias f4 [16]
0	0x3eea618b	0.45777544
1	0x3de2714e	0.110567674
2	0xbeee9ebb	-0.46605477
3	0xbdbbcddb	-0.09170123
4	0x3d996d73	0.07491579
5	0xbcb897d9	-0.022533344
6	0x3fa6ece5	1.3041044
7	0x3d931cf3	0.07183256
8	0xbf3b164b	-0.7308089
9	0xbdf1194f	-0.11772405
10	0x3fa8c594	1.3185296
11	0x3f68e776	0.9097818
12	0x3eadacf6	0.3392102
13	0x3f92ad71	1.145918
14	0x3e890890	0.26764345
15	0x3f1ca618	0.6119094

conv2.weight f4 [32, 16, 1]
0	0x3b3b81f4	0.0028611394
1	0x3c75ee6c	0.0150104575
2	0xbcac22c8	-0.021012679
3	0x3b28a6b7	0.0025734135
4	0xbc1c15f1	-0.009526716
5	0xbd6709b5	-0.05640574
6	0x3a4a13fd	0.0007708667
7	0x3b87183d	0.0041227625
8	0x3c45df9f	0.012077241
9	0xbb813478	-0.0039430223
10	0xbd3b3970	-0.045709074
11	0x3a501b04	0.0007938596
12	0x3cbba486	0.0229056
13	0x3e02c956	0.12772116
14	0x3bf0c5a8	0.007347781
15	0xbcc667b8	-0.024219379
16	0xbe67af77	-0.22625528
17	0x3e3af4c7	0.18257438
18	0x3c838883	0.016056305
19	0x3e1b82b3	0.15186577
20	0xbc410da1	-0.011783035
21	0x3db20b10	0.08693516
22	0xbf23421b	-0.63772744
23	0x3e0b4f2f	0.13604425
24	0xbda82dd2	-0.082118645
25	0x3d136c17	0.035991754
26	0xbe836c54	-0.25668585
27	0x3bf945a7	0.00760718
28	0xbe1119be	-0.14169976
29	0xbe4da17f	-0.20081137
30	0x3cd435e1	0.025904598
31	0xbd58ba4b	-0.052912038
32	0xbc46ca8b	-0.012133251
33	0xbd2d59b8	-0.04232189
34	0x3a708da2	0.00091763784
35	0xbd31b6f2	-0.04338736
36	0xbd730663	-0.059332263
37	0xbca91f2e	-0.02064475
38	0xbc7282e2	-0.014801713
39	0x3d6b8cee	0.057507448
40	0xbd347fbf	-0.04406714
41	0xbc41f294	-0.01183762
42	0x3e1a85c6	0.15090093
43	0x3ca65a92	0.02030686
44	0x3ca35aa1	0.019940676
45	0x3e068a5d	0.13138719
46	0x3b1f443e	0.002430215
47	0x3d52782f	0.051384147
48	0x3daa518d	0.08316336
49	0xbb1333be	-0.002246126
50	0x3e2d1925	0.16904123
51	0xbdec0a59	-0.11525411
52	0xbe12ad39	-0.14323892
53	0x3c9aa752	0.018878613
54	0xbf13ec0f	-0.5778207
55	0xbe697715	-0.22799332
56	0xbe0531ae	-0.13007233
57	0xbdb58059	-0.08862371
58	0x3d4e6a39	0.05039427
59	0xbce29fca	-0.027664084
60	0x3e7ec618	0.24880254
61	0x3e028935	0.12747653
62	0x3cb79edb	0.022414615
63	0xbe409aad	-0.18809004
64	0xbcc24eb1	-0.023719164
65	0x3b9216de	0.0044582924
66	0xbc762fa7	-0.01502601
67	0xbcac6712	-0.021045242
68	0x3cf99e67	0.03047104
69	0xbba6ccfd	-0.0050903545
70	0xb9567308	-0.00020451483
71	0x3c89357a	0.016749132
72	0xbc936481	-0.01799226
73	0xbce438ec	-0.027859174
74	0x3c6c5a06	0.01442576
75	0xbc967de9	-0.018370586
76	0x3ab2073d	0.001358248
77	0xbd8341b4	-0.06409016
78	0x3ce366c1	0.027758958
79	0xbd060d9d	-0.032727826
80	0xbc4cf478	-0.012509458
81	0x3c8c3cd9	0.017118858
82	0x3c24de65	0.010062789
83	0xbc3105f9	-0.010804647
84	0x3cf82e7b	0.030295601
85	0x3b2e4e16	0.0026596836
86	0xbaf56060	-0.0018720739
87	0x3d84fddd	0.06493733
88	0x3d36b537	0.044606414
89	0x3c333ac6	0.010939306
90	0x3d6f3723	0.05840219
91	0xbc39a933	-0.011331844
92	0x3cb03af8	0.021512493
93	0x3c3822af	0.011238738
94	0xbd10a785	-0.03531601
95	0x3cb9076a	0.022586543
96	0xbc1d828c	-0.009613644
97	0xbc2cd426	-0.010548627
98	0xbc2bd501	-0.010487796
99	0xbd195a41	-0.03743959
100	0xbb9f89f2	-0.0048687393
101	0x3d0cd59a	0.034383394
102	0x3b7ed664	0.003888511
103	0xbc7ca364	-0.015419815
104	0x3afc095d	0.0019228865
105	0x3d9c68cc	0.07637176
106	0xbc4b8127	-0.012420929
107	0xbcb59adb	-0.022168567
108	0x3c41aae4	0.011820529
109	0x3d287225	0.04112448
110	0xbcd9ffce	-0.026611235
111	0x3c609a75	0.0137087
112	0x3c8f9d02	0.017530922
113	0x3c4a85c4	0.012360994
114	0x3d2b0742	0.04175497
115	0x3bf43ee3	0.0074537857
116	0x3c91c1c5	0.017792592
117	0x3d3fc801	0.046821598
118	0x3b74de44	0.0037363926
119	0x3c789f03	0.01517463
120	0xbaf7f008	-0.0018916139
121	0x3da59e6b	0.080868565
122	0x3d6d45e1	0.05792797
123	0x3cdf197a	0.027233828
124	0xbc8ca3bf	-0.017167924
125	0xbd67e147	-0.056611326
126	0xbccfd8c2	-0.025371913
127	0xbd7b8cdb	-0.061413627
128	0xbb2984b4	-0.002586645
129	0x3b1eb737	0.0024218091
130	0xbd3f83fd	-0.046756733
131	0xbd04391f	-0.032281037
132	0x3a026a4e	0.0004974947
133	0x3a0aba28	0.00052920217
134	0x3ae3c874	0.0017378465
135	0x3d034f30	0.03205794
136	0xbc30eb10	-0.010798231
137	0xbcb907ba	-0.022586692
138	0x3b0f9a4a	0.0021912032
139	0xbcf0e268	-0.029404834
140	0xbd28e179	-0.041230652
141	0xbda6c75b	-0.08143493
142	0xbb6b13c9	-0.0035869947
143	0xbc6e5c03	-0.0145483045
144	0x3e05894c	0.13040656
145	0xbe59c4b2	-0.2126644
146	0xbe1b339a	-0.15156403
147	0xbdff6638	-0.124706686
148	0x3dd5b431	0.104347594
149	0x3c351e1f	0.011054545
150	0x3ef868d7	0.48517486
151	0x3c4d5f76	0.012534967
152	0xbe0910b8	-0.13385284
153	0x3d0233e4	0.031787768
154	0xbe6467f7	-0.22305284
155	0xbc1c7643	-0.00954968
156	0xbc5159d9	-0.012777769
157	0x3da8bb07	0.08238798
158	0xbd325bd8	-0.04354462
159	0xbd0ba352	-0.0340913
160	0x3d0bb086	0.034103893
161	0x3d1f5141	0.03889585
162	0x3d359b67	0.044337656
163	0xbd32f553	-0.04369099
164	0x3d2f2faf	0.042770084
165	0x3cf60bee	0.030034985
166	0x3c20b665	0.009809111
167	0xbc5123ac	-0.0127648525
168	0xbb9335fe	-0.0044925204
169	0x3d2515c4	0.04030396
170	0xbe1874be	-0.14888284
171	0xbd01ecd8	-0.031720012
172	0xbd3bbf52	-0.045836754
173	0xbcb55f8c	-0.022140287
174	0x3d020548	0.031743318
175	0xbcc380da	-0.023865152
176	0x3d30ef32	0.043196864
177	0xbcd2b736	-0.025722127
178	0x3ce02794	0.027362622
179	0xbd25ae1e	-0.040449254
180	0x3c6afd21	0.014342577
181	0x3dd868ed	0.10566888
182	0x3c659162	0.014011713
183	0xbc975d65	-0.018477151
184	0xbd44d263	-0.048052203
185	0x3dd0b802	0.10191347
186	0xbbf28934	-0.00740161
187	0x3d19efb5	0.037582118
188	0x3cab467c	0.020907633
189	0xbe3e3610	-0.1857531
190	0x3b3588e3	0.00277
191	0xbd9f4386	-0.07776551
192	0x3d2db8be	0.042412512
193	0x3d969663	0.07352903
194	0xbc01003a	-0.007873589
195	0x3d031218	0.031999677
196	0x3d6aa28d	0.057283927
197	0xbddf570d	-0.109052755
198	0xbbaa79e8	-0.0052025206
199	0x3d9d50a4	0.076813966
200	0x3d339ff7	0.043853726
201	0xbcf36d8c	-0.029715322
202	0x3d887bc0	0.066642284
203	0x3b6e4d99	0.003636217
204	0xbd5ba233	-0.053621482
205	0x3d8906a7	0.06690722
206	0x3d8f0be8	0.06984693
207	0x3cafcde5	0.021460483
208	0x3e819f53	0.25316867
209	0xbd0fe762	-0.035132773
210	0xbe290f68	-0.16509783
211	0xbe45dcca	-0.19322506
212	0x3c2eaf7f	0.010661959
213	0xbdf0bef5	-0.11755172
214	0xbf31a4c5	-0.69392043
215	0xbdc47c48	-0.09594017
216	0xbd0255d6	-0.03182014
217	0x3dd13998	0.10216063
218	0xbd4795f0	-0.048726976
219	0xbcd0ba2a	-0.025479395
220	0xbd653636	-0.055959903
221	0xbd586660	-0.052832007
222	0x3baca370	0.0052685067
223	0x3dc76e57	0.097378425
224	0xbc27fda1	-0.010253341
225	0x3c234257	0.009964547
226	0xbd473a75	-0.048639733
227	0x3d74aaab	0.059733074
228	0xbc922e36	-0.0178443
229	0x3d154fbd	0.036452997
230	0x3c3abc9a	0.011397505
231	0xbce7d287	-0.02829863
232	0x3c204fac	0.00978462
233	0x3d88521a	0.06656285
234	0xbd3901d1	-0.045167748
235	0x3b20cccb	0.0024536129
236	0x3d278c57	0.040905323
237	0xbdf0c5e3	-0.11756494
238	0xbd0421cd	-0.032258797
239	0xbcab3fd2	-0.020904455
240	0xbbd25203	-0.006418468
241	0xbbca0f12	-0.0061663473
242	0xbcf7a063	-0.030227846
243	0xbc336c0d	-0.010951054
244	0xbd06624e	-0.032808594
245	0xbdc0a37a	-0.09406181
246	0xbc8ca7b5	-0.017169813
247	0x3dba5d00	0.090997696
248	0xbcce996c	-0.025219642
249	0xbb9cc6cd	-0.004784441
250	0x3e201f9b	0.15637057
251	0x3ca67d31	0.020323368
252	0x3de1a63a	0.11018033
253	0x3d565a5c	0.052332267
254	0x3d4cdf97	0.05001792
255	0x3d543c66	0.051815413

conv2.bias f4 [32]
0	0x3cee5baf	0.029096453
1	0x3d1de0e1	0.03854454
2	0xbf0acc72	-0.5421821
3	0xbb2a7c79	-0.0026014133
4	0xbbef2896	-0.0072985394
5	0xbd9f93fb	-0.07791897
6	0x3e0ef808	0.13961804
7	0x3e05cef2	0.13067225
8	0x3d7a3d05	0.06109335
9	0x3ed126fd	0.40850058
10	0x3eb69e70	0.35667753
11	0x3f021a38	0.50821257
12	0xbe47d9d3	-0.19516687
13	0xbcd09bfe	-0.025465008
14	0x3ed63bf4	0.41842616
15	0xbf2046fa	-0.626083
16	0x3d48e62d	0.049047638
17	0xbe19a919	-0.15005912
18	0xbedc3c44	-0.4301473
19	0xbdaf11af	-0.08548295
20	0x3daefd2d	0.08544383
21	0x3db318cb	0.08744963
22	0xbd741efa	-0.059599854
23	0xbde17a81	-0.11009694
24	0x3f382015	0.71923953
25	0xbdddc6fb	-0.10828968
26	0x3ebab4db	0.36466107
27	0xbe2c4b46	-0.1682559
28	0x3e6abf15	0.22924455
29	0x3ef2f757	0.4745433
30	0x3e65b35f	0.22431706
31	0x3e87fa80	0.26558304

fc.weight f4 [1, 32]
0	0xb9c79f5f	-0.00038074979
1	0x3edd8282	0.43263632
2	0xb93927ae	-0.00017657757
3	0x3ea9d248	0.33168244
4	0x399375ae	0.00028125703
5	0x3914fcc2	0.0001420854
6	0xb9c8eb48	-0.0003832227
7	0xb93bc372	-0.00017906519
8	0x3994032a	0.00028231117
9	0xbe95c60f	-0.2925267
10	0x3a1e0a76	0.00060287805
11	0xba2fec44	-0.00067109265
12	0xb93023ef	-0.00016798054
13	0x3ed803cb	0.42190394
14	0xba1b21e3	-0.000591783
15	0x38ae9af4	8.325829e-05
16	0xb98688e3	-0.0002566046
17	0x3a090e1c	0.0005228238
18	0xba4f1fc9	-0.00079011597
19	0x39ea477e	0.00044685224
20	0xb99572d7	-0.00028505057
21	0xb969bfac	-0.00022292015
22	0x3ed10537	0.4082429
23	0x39aa9129	0.0003253308
24	0xba1a9c37	-0.00058979116
25	0xb7c6d7fa	-2.3704011e-05
26	0xbea73fdf	-0.32665917
27	0x3963db42	0.00021730087
28	0x3a16395e	0.0005730594
29	0x380a239f	3.293494e-05
30	0xbea64d03	-0.3248063
31	0xbe363f04	-0.17797476
