model_list/2001/humidity_winter_2001_v3.pth (torch, 5322 bytes, 5 tensors)

conv1.weight f4 [16, 3, 1]
00000000: b587 20be 3c77 07bb ff3c 4d3e 8aab babd
00000010: c114 99bd 9205 7d3e e71f c43e 3978 6a3a
00000020: 2dfc d0be fb74 9d3d 9262 c7bb cd7f 28bd
00000030: 6a5d e13d b91c 08bf 0ea5 18be fcc8 593e
00000040: 3b88 07bb 4eb4 64be 6064 1a3e 71ef c73c
00000050: b4c2 34be 176c b43e 48a6 8ab9 dbe0 b6be
00000060: b3d2 033c 5c84 193c 2f7c fcbc 7dbd dd3d
00000070: 964a ee3b 53f6 11be 8bfa 8ebb 2d4a 26bc
00000080: f4c4 373d ecdb 403d 3258 48be 60c8 8f3e
00000090: 1a54 c1be 4526 113f 892d 93bc 43aa 323e
000000a0: 3ae5 ed3e 59e4 af3d c501 873e 9a27 99bb
000000b0: cb8f 95be b536 8b3e 5143 06bb 6d42 99be
-0.15676768 -0.0020670434 0.200428 -0.0911475 -0.074746616 0.24709156 0.3830559 0.0008944306
-0.40817395 0.07688328 -0.0060847485 -0.041137505 0.110041454 -0.5316883 -0.14906713 0.21268076
-0.0020680565 -0.22334406 0.15077353 0.024406167 -0.17652398 0.35238716 -0.000264453 -0.35718426
0.00804584 0.009369936 -0.030820934 0.10827158 0.007272075 -0.14254121 -0.004363363 -0.010149521
0.044865564 0.047084734 -0.19564894 0.28082561 -0.37759477 0.5669902 -0.017966049 0.17447762
0.46463948 0.08588476 0.26368538 -0.0046739103 -0.29211268 0.27190176 -0.00204869 -0.2993349

conv1.bias f4 [16]
00000000: 10e8 20bf f564 0cbf d5d0 fb3d ef7d 3cbf
00000010: d445 6d3d 8c77 84bd 4f12 05bf 8004 a8be
00000020: 369e 363e eb03 b63e 42dd 0bbf 9258 833e
00000030: 52aa 7bbf 1073 d5be 333e c73e 8347 9b3e
-0.628541 -0.5484155 0.12295691 -0.7362966 0.05792792 -0.06468114 -0.5198106 -0.32815933
0.1783379 0.35549864 -0.5463449 0.2565351 -0.98306763 -0.41689348 0.38914642 0.30327997

conv2.weight f4 [32, 16, 1]
00000000: 08b2 00bd 7181 423e bdde 27be 869a 583e
00000010: b9ba ad3e 5e17 9d3d f1bb 063e d401 143e
00000020: 0206 0f3e 1cb8 aabd 49e4 24be 5b58 d63d
00000030: 8e15 8ebe bc25 efbe a308 e9bd ff12 49be
00000040: 2188 dabc cd7e 563e cc9e 1b3d 76bb 89bd
00000050: 8208 05be d38d bf3c 3b73 cabd 4981 243c
00000060: bafc 8c3d 2169 f1bc 7cad babd 7a3a 2ebd
00000070: 8cc2 93bc 983e c7bd 9098 20bd 5930 563c
00000080: ea59 b1bd 1b11 90bd ae05 133b a044 0dbd
00000090: 2313 36bd 1c1a 033c 045c 0cbe 64c6 80bb
000000a0: 0ec6 773d 71ce ab3d 8daf 9d3d 6454 ebbd
000000b0: 4e62 eabd f93c bc3c 2ce2 9b3c 3c58 a5bb
000000c0: 6204 dd3d 4335 3cbd 3d35 a0bd b28c 213e
000000d0: 0665 96be d4ed 213c a0da d93c cb02 463e
000000e0: d54c 4c3d 0698 8e3c b7fa 3a3e f697 8a3e
000000f0: d4ad be3d e2d9 c43e ffcc 25be a671 bc3c
00000100: c731 5f3e bcad 91be 19f0 8e3c 8187 1d3e
00000110: ac4d 8a3d 2ffc e5bd d164 42bd 3416 c6bc
00000120: 4d39 623d 75bf dfbd 7e42 3ebe de68 d53d
00000130: b41d e2be 78c2 c3be 8e43 0c3e 48a3 da3d
00000140: 03d6 353e 2f9d 1bbe f71c 73be 694b 55be
00000150: 1e1d 523e be43 64be d607 833b 4052 5cbd
00000160: b181 a83d 0514 2d3e c9df f53d 08b5 16be
00000170: 86b2 6ebe c64c a63d e642 92bb b620 f53d
00000180: a046 7dbc acd6 f43d f6f1 58be 5789 f3bd
00000190: 4c09 e63e bcfd 0f3d 553f c83d 75ff 093e
000001a0: eabc 43be e015 713b 809b 563e 7d0a da3b
000001b0: 60b4 ecbd 3c6f 5dbe 8a35 473e f5e2 0e3d
000001c0: fdad 683d 9951 53bb b632 af3d a808 34bd
000001d0: 4f6e 953d 6732 79bc aca2 563e 889a 183e
000001e0: dd21 64bd 7536 de3d 24ca 843d 1359 3b3d
000001f0: 9753 0a3d b93b fa3c 20c8 03be 1a49 b8bc
00000200: 39ff fabd fdc2 dc3e 9625 bb3c f7b8 af3c
00000210: cd96 cb3d 7577 51bc 59da 0ebe 5b92 67bd
00000220: 33bf 59bd 855e 363d 5169 bb3d 4ea9 b1bd
00000230: c3bb de3d 1f58 3d3d 64e9 bb3d 7dbc 403d
00000240: 1b8c 723d c8a3 09bc bd62 e33c 7a04 793d
00000250: 028e e13d 6ab5 e5bc 3dab ef3d 4d87 83bd
00000260: f888 503c aa81 28bd 03bd 203d 7bcf dbbd
00000270: f7a3 87bc 59c7 c43d a6c5 173d c448 20bc
00000280: e974 183e af09 4dbd 98a7 293b 8829 cc3d
00000290: 3835 58be d6fa 913d 59d5 2cbd 0cde f1bc
000002a0: dc10 5e3e 9065 d33c 28f7 5ebe ce66 13bc
000002b0: 05c1 743e 6acb 033e 5ca9 fd3d eb9b e13c
000002c0: 345a f33c 814b 2d3e c46f ae3d 94bb 963d
000002d0: e92e 2e3d a573 1ebd 6dc1 d3bd 3264 403d
000002e0: 64dd 6bbd b2fa 053d 4bfd 2f3a 2343 133e
000002f0: ac86 2e3e eedc 8bbd 6fcc e7bd b373 313e
00000300: 41db 07be a38f 0f3e ac52 04bd 1cc5 5cbd
00000310: 8899 fc3e 48e4 0b3d 820d 2b3c 2ac6 273e
00000320: ec32 12be 244f d83c a3fe ca3d 8eb4 183e
00000330: f743 c5be 194a 6bbe c07b 13bd 1ae7 b2bd
00000340: 88fd 423d 8f54 303e b859 8bbd 37d2 ce3d
00000350: 02dc 13be b942 3abd 63ed 42bc ae5a 123d
00000360: 1d7c c6bd 54f5 86bd 547c 9f3d 87e6 aabd
00000370: c67f c9bc b0b3 edbd acba 953d e4d4 db3c
00000380: a7d4 b4bd 223c 033d 683f 2c3d 4002 1cbd
00000390: af41 f93d 007c f1bc 2f36 7fbd f909 963d
000003a0: 875a 433e 1e6d 013d d2fb ae3d cdd6 5c3e
000003b0: 60cf 0b3e b9f2 373d e789 223e f45f 073e
000003c0: 194b 2f3d 245a 833e 0b3a d5bd f3ec 903d
000003d0: cbec d43d 696b 443e 7f7f 14ba 5c64 cdbc
000003e0: 920d a7bd 2518 34ba aa0d 9d3d 7095 63be
000003f0: d4cf d23c 470b 9c3d 8808 3bbd 20ca fabc
-0.031419784 0.1899469 -0.16393562 0.21152696 0.3393152 0.076704726 0.13157631 0.14453822
0.13967136 -0.08335897 -0.16102709 0.10466071 -0.2775082 -0.46708477 -0.113786004 -0.19636153
-0.02667624 0.20946808 0.037993237 -0.067252085 -0.12991527 0.023383057 -0.0988526 0.01004059
0.06884141 -0.029469075 -0.09115121 -0.042536236 -0.018037103 -0.09728736 -0.039207995 0.01307305
-0.08659728 -0.070345126 0.0022433805 -0.034489274 -0.044451844 0.00800183 -0.13706976 -0.0039299
0.060491614 0.08388985 0.07699499 -0.114907056 -0.114445314 0.022978293 0.019028746 -0.0050459187
0.107918516 -0.04594923 -0.078226544 0.15776327 -0.2937395 0.009883363 0.026593506 0.19337003
0.04987796 0.017406475 0.18259703 0.27069062 0.09310499 0.3844748 -0.16191481 0.02300341
0.21796332 -0.2845286 0.017448472 0.15383722 0.06753096 -0.11229741 -0.047459427 -0.02418051
0.055230428 -0.109251894 -0.18580052 0.104203925 -0.44163287 -0.38234305 0.13697645 0.10675675
0.1775742 -0.1519668 -0.23741518 -0.20829548 0.2051892 -0.22291467 0.003998737 -0.053789377
0.08227862 0.16902168 0.12005574 -0.14717495 -0.23310289 0.08120112 -0.0044635413 0.1196913
-0.015458733 0.11955008 -0.21186051 -0.1189143 0.44928968 0.03515409 0.097777046 0.13476355
-0.19115034 0.003678672 0.20957756 0.0066540823 -0.11557841 -0.21624464 0.19454017 0.03488441
0.056806553 -0.003224468 0.08554594 -0.043953568 0.0729643 -0.015209771 0.20960492 0.14902699
-0.055696357 0.108502306 0.06483868 0.045739245 0.033771124 0.030546056 -0.1286931 -0.022495795
-0.12255711 0.43117514 0.02284507 0.021450503 0.09940872 -0.012784828 -0.1395048 -0.05653606
-0.053160857 0.044523735 0.09150947 -0.086748704 0.108756565 0.046226617 0.09175375 0.047054756
0.059215646 -0.008400865 0.027757043 0.060795285 0.11013414 -0.028040607 0.11702583 -0.06422291
0.012727968 -0.041139282 0.039242756 -0.10732933 -0.016557677 0.09608335 0.037053727 -0.009782974
0.14888348 -0.050058063 0.0025887247 0.09968859 -0.21114051 0.07127921 -0.04219565 -0.029524826
0.21686119 0.025805265 -0.2177397 -0.0089966785 0.23901756 0.12870565 0.12385818 0.027540168
0.029706098 0.16923334 0.08517411 0.073599964 0.042525206 -0.038684506 -0.103396274 0.046970554
-0.05758418 0.032709785 0.0006713464 0.1438108 0.1704356 -0.06829248 -0.113182895 0.17329292
-0.13267232 0.14019637 -0.032305405 -0.053898916 0.49335885 0.034153253 0.010440232 0.16384187
-0.14277238 0.026404925 0.09911849 0.14912626 -0.38528416 -0.22977485 -0.03600669 -0.087354854
0.047605067 0.17219757 -0.06804222 0.10098689 -0.14439395 -0.045473788 -0.011897418 0.03573101
-0.096916415 -0.065897614 0.077873856 -0.08344751 -0.02459706 -0.11606538 0.073109955 0.026834913
-0.08829623 0.03203977 0.042052656 -0.038088083 0.12170731 -0.029478073 -0.062307533 0.07326121
0.19077502 0.031598203 0.08544125 0.21566315 0.13653326 0.044909213 0.15872918 0.13220197
0.042796228 0.2565471 -0.104114614 0.070764445 0.10396727 0.19181599 -0.00056647504 -0.02507227
-0.08156885 -0.0006870053 0.07668622 -0.22224975 0.025733866 0.076193385 -0.045662433 -0.030613959

conv2.bias f4 [32]
00000000: 3b5a d5bd 440d 5dbe d80e 62be 7870 8cbd
00000010: c2d0 06bd 889c f9bd e598 5d3e 4c85 a63e
00000020: 8c74 34be 7778 903e 3a44 903d fc3f e23e
00000030: dcae 47be cbfa 333d 96a8 89be 966c 8e3e
00000040: c36a 33be 54ce c9bd 0df9 4a3e 196f 9ebe
00000050: e322 6a3d 2c4c bb3e 0e2a 34be 3426 b5be
00000060: 6a73 71be 1a12 58be 399e bfbd 03cc 633e
00000070: efd0 463e 8f5d 053e 6e76 943d ec64 14be
-0.10417601 -0.21587092 -0.22075975 -0.06857389 -0.03291393 -0.12188059 0.21640356 0.32523572
-0.17622584 0.28216907 0.07044263 0.4418944 -0.19500297 0.043940347 -0.26886433 0.2781722
-0.17521195 -0.09853807 0.19821568 -0.30944136 0.057162177 0.36581552 -0.17594168 -0.3538071
-0.23579183 -0.21100655 -0.093563505 0.22245793 0.1941564 0.13023971 0.07249151 -0.14491624

fc.weight f4 [1, 32]
00000000: af0d 99be 2f00 183b 2e11 21bb 778c 523e
00000010: 5a20 61be 55d5 92bd 1320 64be 6668 29bb
00000020: 8358 473b 0702 b0ba b72c 173e 8ef9 683b
00000030: ffff 92be deeb 6a3b 59c8 3abb b4c2 753b
00000040: bf17 3fbb 3309 213b a763 19bb b32e 423d
00000050: 3d18 85be 4f4d 2cbe 5358 2cba 7c7c 78bb
00000060: 685b 733b f07f 65ba 91e8 86bb c896 593b
00000070: f599 813b aaf9 653b 97e9 74be 4f3a c03a
-0.29893252 0.0023193469 -0.002457689 0.20561396 -0.21984997 -0.07169596 -0.2227786 -0.002584958
0.0030417747 -0.0013428339 0.14763151 0.0035549137 -0.28710935 0.0035846154 -0.0028500764 0.0037500085
-0.002915844 0.0024572134 -0.0023405345 0.047407817 -0.25995055 -0.16826366 -0.00065744406 -0.0037915995
0.003713334 -0.0008754721 -0.0041170795 0.0033201445 0.0039551207 0.0035091438 -0.23917232 0.0014665815
