model_list/2001/humidity_winter_2001_v1.pth (torch, 5580 bytes, 5 tensors)

conv1.weight f4 [16, 3, 1]
000000 f8 8b 95 be 6e 04 08 3f 69 89 76 3d c1 82 70 3e
       -0.2920835 0.5313176 0.06018964 0.23487379
000010 bc a2 e1 3b cb 35 7d be 5b c7 10 bd 8b 84 26 bb
       0.0068858545 -0.24727552 -0.03534637 -0.0025408592
000020 81 2e be 3c 51 16 db 3d 12 90 13 3f 2a 93 16 3d
       0.023215534 0.10697616 0.5764171 0.03676144
000030 fe 3f c0 3e 97 27 fc 3b 89 b0 c7 be 64 e1 b7 bd
       0.37548822 0.007695149 -0.39001873 -0.08978537
000040 11 29 c7 ba a2 6f 85 3d 04 76 44 3d b5 f1 b9 3a
       -0.0015194734 0.06515433 0.04796411 0.0014186414
000050 78 94 d8 bc 32 0f ea bd 13 19 2a 3c 61 f4 ea 3d
       -0.026437983 -0.114286795 0.010381955 0.11472393
000060 97 81 9c 3e 1a 20 03 3c c5 44 a0 be 3b ab 9b be
       0.3056762 0.008003259 -0.31302467 -0.30404076
000070 cf eb 57 3e f2 01 05 bd a2 c4 71 be e3 37 1f bb
       0.21086048 -0.03247256 -0.23610166 -0.0024294786
000080 05 cc 81 3e 58 e0 a0 3d fc 1d 82 3a 91 0c 84 bd
       0.25350967 0.0785529 0.0009927149 -0.06447709
000090 08 cf 1b be f0 25 03 3c dc 9a f7 3d a3 5d 0b 3e
       -0.15215695 0.0080046505 0.12090084 0.13609938
0000a0 20 83 14 bc f6 55 da bd 80 32 9d be bc 9b 0c bc
       -0.009064466 -0.10660927 -0.3070259 -0.008582052
0000b0 cf a1 94 3e 9f 4e 05 bd 1b 8e 07 3c 7f e4 1d 3d
       0.290297 -0.032545682 0.008273627 0.03854799

conv1.bias f4 [16]
000000 6f 06 16 bf ac 17 9d 3d d0 b0 74 3e 23 41 bd be
       -0.58603567 0.07670531 0.23895574 -0.36963758
000010 30 d8 a5 ba fd 2a 03 3f d4 a2 e6 be 88 76 dc be
       -0.001265293 0.5123747 -0.45046103 -0.43059182
000020 51 42 1d be f1 be 39 bf f0 0b c0 be 6c ae 63 be
       -0.15357329 -0.7255698 -0.37509108 -0.22234505
000030 09 ac a7 3e f8 4b 90 be 9f 63 34 3f a2 14 e8 be
       0.3274844 -0.2818296 0.7046451 -0.45328242

conv2.weight f4 [32, 16, 1]
000000 c2 61 69 3e d9 a9 e4 bc 0d 59 b5 3d d5 92 12 be
       0.22791198 -0.02791302 0.08854876 -0.14313824
000010 af df 46 3d 42 70 75 bd b0 56 8d 3c 39 75 86 bd
       0.048553165 -0.05992151 0.01725325 -0.06565327
000020 5f e8 27 3c a6 a7 0a be 3c 94 7c 3d ab b6 c4 3c
       0.010248273 -0.13540515 0.061664805 0.024012884
000030 80 84 33 bb 44 61 43 3d 34 5e 1d bd db d4 a2 3d
       -0.0027392209 0.04770018 -0.038419917 0.07950755
000040 2c f5 32 3d 88 2f b2 3c bc 96 ef 3d 64 47 46 bd
       0.043690845 0.02175118 0.11698672 -0.048407927
000050 67 03 af bd 74 c7 ac bd 3c 66 7c bd 39 15 05 bc
       -0.08545571 -0.0843648 -0.061620936 -0.008122736
000060 3d 7f 18 3e 1d 6e 2c 3c 28 74 17 3e 9d d7 57 3d
       0.14892288 0.0105243 0.14790404 0.05269586
000070 c1 8c 1f 3d 97 6e b3 3d 7a 0f 96 bd b7 ee 99 3a
       0.038952593 0.08761328 -0.07327171 0.0011744116
000080 b7 af 61 be 12 3e 08 bd 19 a1 f9 3d c4 87 21 3e
       -0.22039686 -0.03326232 0.1218893 0.15774447
000090 f0 df a5 be d1 a5 eb bd 11 96 5c bd bb c6 41 bc
       -0.32397413 -0.11506236 -0.053854052 -0.011827166
0000a0 28 bd 55 3b 7c 7e c2 3d c4 c3 25 3e 16 5e 7d bd
       0.0032613967 0.09496781 0.1618796 -0.061857305
0000b0 0f fc c0 bd 33 e8 68 3a 68 39 0d be 90 ce 8c be
       -0.09423076 0.0008884698 -0.1379143 -0.27501345
0000c0 43 d8 51 be 9a 81 29 bd 6a ea 6e 3d d7 4f 02 3e
       -0.20492654 -0.041383363 0.058329023 0.12725769
0000d0 8f 19 d2 bc 89 a3 bf 3c 29 80 e5 3d 68 17 85 bd
       -0.025646953 0.02339341 0.11206085 -0.06498605
0000e0 51 f7 6e bd 67 2a 41 3e 37 e6 29 bd f4 b6 ae bd
       -0.058341328 0.18863831 -0.041479316 -0.08530989
0000f0 0c 55 66 bd 93 4b c9 3c 37 18 86 3d 5e 11 14 bd
       -0.05623345 0.02457217 0.06547587 -0.036149375
000100 4b eb cf bd 12 40 d5 bd 66 ed c0 3d b8 34 1e 3d
       -0.101523004 -0.10412611 0.0942028 0.038624495
000110 22 8b 3b bd c5 e7 f1 3c d5 91 43 3d 5d 5c b2 bc
       -0.045786984 0.029529462 0.0477465 -0.021772558
000120 fd b3 3e bd c6 2f 35 3e ff 8b d6 3d c8 d1 75 bd
       -0.04655837 0.17694005 0.10475921 -0.060014516
000130 53 d5 71 bc 23 bc 76 3d f4 0d ba 3c a9 f9 8c 3d
       -0.014760333 0.060238015 0.022711731 0.068835564
000140 82 fc 2b be a0 bc d7 bd de 78 c6 bd 7f a3 02 bf
       -0.16795543 -0.10534024 -0.09691022 -0.51030725
000150 78 8b 96 bd 7f 72 29 bc 79 a9 a6 3d 7e 1a 72 3d
       -0.0735082 -0.010342239 0.08137793 0.059107296
000160 3d 05 e9 3d 7c e7 bc bc 78 78 a3 bd 20 84 4e 3e
       0.11377952 -0.0230596 -0.07981962 0.20167589
000170 26 cb d3 3d 3e 59 5e bd 29 1a 2f 3d e0 f1 82 3d
       0.10341482 -0.054284327 0.042749558 0.0639379
000180 d4 79 e7 bd a2 1e a1 3b df 78 01 bc 25 e3 a3 3d
       -0.11302534 0.004916982 -0.007902353 0.08002309
000190 ae 66 8e 3c 29 17 b9 bc 49 e7 35 bd e1 af 6f bc
       0.017382946 -0.022594051 -0.044410024 -0.014629335
0001a0 b2 ca 61 bb 20 6f 02 3e cd 14 0d 3d a2 aa 5a 3d
       -0.0034453091 0.12737703 0.034443665 0.053385384
0001b0 c8 e6 2e 3d 05 e5 d3 3d 92 57 ab 3c f2 8c 36 bd
       0.04270056 0.103464164 0.02091578 -0.04456801
0001c0 1c f6 0e bd 6a e8 aa bd 70 a2 54 3d 55 45 53 3b
       -0.034902677 -0.08345111 0.051912725 0.003223737
0001d0 2e 39 1a 3d 16 e7 ae bc 28 cb 0c 3c 85 6b 5d 3c
       0.037652187 -0.021350425 0.008593358 0.013514404
0001e0 a1 98 5e 3d 01 fb 6a 3c e8 79 91 3d 99 74 00 bd
       0.054344777 0.014342071 0.0710333 -0.031361196
0001f0 07 82 ac 39 28 bb 2d bd 43 f2 75 bb b4 70 f5 bc
       0.00032903274 -0.042414814 -0.0037528432 -0.029960968
000200 15 7e c7 bc 7a 62 73 bd e0 47 82 3d 07 6f 9b 3a
       -0.024352113 -0.059420086 0.06361365 0.001185865
000210 e8 e7 dc bc 41 d4 a7 3d bc ef 95 bd bf a1 42 bd
       -0.02696605 0.08194781 -0.07321116 -0.047517534
000220 17 ad 07 be 08 fb b5 3d ed cd ed bc 41 f3 0e 3c
       -0.13249622 0.08885771 -0.029028857 0.008724988
000230 69 a9 6c bc 56 87 41 3d cd f7 a3 3d bb 51 3f 3d
       -0.014444687 0.047248207 0.080062486 0.046708804
000240 fa 26 78 be ce 41 98 3d 95 f1 41 bd e7 bd 25 3e
       -0.24233618 0.07434426 -0.04734953 0.16185723
000250 8a 7d b9 bc 96 b7 cb 3b a0 0a a3 3c f6 db 74 3d
       -0.02264287 0.0062169535 0.019902527 0.059780084
000260 c2 f0 5d 3c e8 4d 00 3e c8 11 f2 bd 09 aa a4 bc
       0.013546171 0.12529719 -0.11819798 -0.02010061
000270 f7 05 93 3d 1b 6d aa bd 80 c8 b8 bc f5 45 5d 3b
       0.07178872 -0.083215915 -0.022556543 0.0033763621
000280 27 bd 98 3e 00 56 23 3e d8 ba c3 bd ce b7 ca 3e
       0.29831812 0.15950775 -0.09557122 0.39593357
000290 49 cc e1 3a 01 0c 1a bd 21 d3 1d be 02 c3 8b 3e
       0.0017227019 -0.037609104 -0.1541257 0.27297217
0002a0 f7 7e 33 be d1 92 43 be 3f ec 45 3e 53 da 10 3e
       -0.17528902 -0.19098975 0.19328402 0.14145784
0002b0 45 a6 16 3e a4 bf ba 3d 9b 71 63 3e c2 f2 a3 bd
       0.14711864 0.09118584 0.22211306 -0.08005287
0002c0 bd cc 04 3e 07 88 a7 3d 9b 44 a0 bd dd a9 a6 bd
       0.12968726 0.08180242 -0.078255855 -0.081378676
0002d0 68 ad 27 bd d0 d4 47 bd af 6c f3 bc d0 63 bf 3d
       -0.040936857 -0.04878694 -0.02971491 0.093452096
0002e0 53 85 3f 3c 16 2c 18 be 24 63 fc 3b 18 cd 56 3d
       0.011689502 -0.14860567 0.007702248 0.052441686
0002f0 0e 48 56 3d a7 ea 89 3c 08 b5 04 bc 82 8e ad 3d
       0.05231481 0.016835524 -0.008099802 0.08474447
000300 fe cd df 3c 87 56 17 bd 6a 91 44 bd 46 1a d7 bc
       0.027319904 -0.036947753 -0.04799024 -0.026257645
000310 ea 62 1c 3e ba ae 94 3c d3 27 a6 3c d9 3e 00 3d
       0.15272108 0.018149722 0.020282662 0.031309936
000320 ff 34 05 3c 6b 48 8a bd 24 62 8c 3d 8c 2c 0d be
       0.008130311 -0.06752094 0.06854656 -0.13786525
000330 50 99 f2 bc 69 42 12 3d 42 55 10 3e d0 54 80 3d
       -0.02961412 0.035707865 0.14095023 0.06266177
000340 58 f5 e4 3d f7 ee 9c bc 52 95 e1 3d 82 dc a2 bd
       0.11179608 -0.019156916 0.11014809 -0.07952215
000350 d6 94 c8 3c 3e 38 22 3c 65 9c 97 3b 2a 7e 62 3d
       0.024485033 0.0099011045 0.004626798 0.0552961
000360 19 dc 26 3d 72 b3 3d bd 83 fd 3e 3d ac e1 61 bd
       0.040737245 -0.04631371 0.046628486 -0.055146858
000370 7f b7 45 3c a2 4c fd 3c 84 c1 05 be f1 cc 3b bd
       0.012067675 0.03092033 -0.13062102 -0.045849744
000380 24 06 90 3d ca 7c ba bb 93 de bc 39 cf a8 f3 bc
       0.07032421 -0.0056911455 0.00036023985 -0.02974358
000390 ee f6 e4 bc 40 50 16 3d 91 a3 77 bc 39 f7 14 be
       -0.027949777 0.036697626 -0.015114681 -0.14547433
0003a0 de 65 84 bd 0f c1 18 bd f4 36 95 ba 21 d8 a6 3c
       -0.06464742 -0.03729349 -0.0011384175 0.02036673
0003b0 11 8e 23 bd 2f 66 96 3d 37 1e b4 3d 9d b4 e7 3c
       -0.039930407 0.07343709 0.087948255 0.028284365
0003c0 b1 be 07 3e f9 cf a1 bc 79 1c 61 3b f6 c9 8c bd
       0.13256337 -0.01975249 0.0034349246 -0.068744585
0003d0 d4 e1 e2 3c e7 18 50 bd ff 07 37 bd be 7a 17 3d
       0.027695574 -0.050805 -0.04468536 0.03698229
0003e0 44 ff 9f 3c db da b6 bd 2f 07 d8 bb e9 8b 5d 3d
       0.0195309 -0.08928462 -0.006592653 0.054088507
0003f0 de 4f 39 bd 42 e0 48 3d f3 87 86 3c 71 b6 25 3d
       -0.045242183 0.049041994 0.016422248 0.040457193

conv2.bias f4 [32]
000000 95 37 80 3e 4e b2 01 3f 1c d1 14 bf 2c b4 33 be
       0.25042406 0.50662696 -0.58131576 -0.17549199
000010 b9 77 07 3f c0 30 05 3e 97 e2 75 be 47 2e b8 3e
       0.5291706 0.13006878 -0.24012218 0.35972807
000020 ae 5a 96 3e 6f 01 de be 51 e1 21 bd 6a e7 8b 3c
       0.29366058 -0.4336047 -0.03952152 0.01707812
000030 db 11 22 3e cd 8e e2 3e 25 e0 a5 be 3c 99 2e be
       0.15827124 0.44249573 -0.3239757 -0.17050642
000040 07 f5 d7 3e 95 93 9e 3e 9f fa 88 bd b1 28 16 3c
       0.4217913 0.3097197 -0.06688427 0.009164975
000050 b9 4f 98 bd 0f 56 6f bd 9a 19 e5 3e 1f 7e c4 be
       -0.07437081 -0.05843168 0.44746095 -0.38377473
000060 f7 d7 3d 3e 52 48 29 3e d3 81 79 3e 13 86 53 3e
       0.18539415 0.16531494 0.2436593 0.20656614
000070 d2 99 06 be 9b 89 c6 be 8f bf 66 3e 5c 1d d6 3d
       -0.13144615 -0.3877686 0.22534011 0.104548186

fc.weight f4 [1, 32]
000000 7a 46 c2 39 5f 34 af 3a 1a 17 7a 3b a4 40 e2 ba
       0.00037055073 0.0013367048 0.0038160742 -0.0017261696
000010 7d 94 0b 39 8c 18 97 be 8e be 87 ba e6 f8 cb 39
       0.00013311389 -0.29510915 -0.0010356472 0.0003890462
000020 89 61 97 3a 77 c7 b7 ba 29 e8 84 3e 23 22 9d 3a
       0.0011549453 -0.0014021237 0.25958374 0.0011988323
000030 73 7d 1f 3a 0a 1a 99 b8 af 4a 05 3b af 1e 17 ba
       0.0006084062 -7.300459e-05 0.0020338704 -0.0005764765
000040 ab 60 5d 3a c3 dc 8b be 41 18 87 be f3 bf 23 3b
       0.00084448856 -0.27316865 -0.26385692 0.0024986237
000050 e5 e3 9e be fe db 1b 3e c3 23 8c b7 99 be 25 3b
       -0.31033245 0.15220639 -1.6705953e-05 0.0025290607
000060 f2 64 ad be 05 ad 50 be 63 38 99 ba 86 d5 64 ba
       -0.33866078 -0.20378502 -0.0011689778 -0.0008729327
000070 17 cb b1 be 11 f0 1b ba 6e f5 e9 ba 61 5a 7a 3a
       -0.34725258 -0.00059485534 -0.0017849633 0.00095502107
