model_list/2001/humidity_summer_2001_v2.pth (torch, 5386 bytes, 5 tensors)

conv1.weight f4 [16, 3, 1]
000000 e2 dc c0 3e f4 0c fd bb 48 d0 b3 be 03 4e 0c 3e
       0.3766852 -0.0077224914 -0.35119843 0.13701634
000010 b8 05 58 3c 7a 53 2b be 47 23 93 3d c5 5c 9e 3c
       0.013184957 -0.16731063 0.07184463 0.019331345
000020 7c ba a8 bd 71 8e 38 be 44 21 f7 3e dc e5 11 3f
       -0.08238694 -0.18023087 0.48267567 0.5699136
000030 5b 38 36 3e d0 ba f2 3b 0c 8a 5d be fb d3 6c bf
       0.17794935 0.0074075237 -0.21634692 -0.92510957
000040 83 de 26 3f 1f ae 45 3f 77 87 e3 bd 9b 0d 33 bc
       0.65183276 0.7721881 -0.11109822 -0.010928537
000050 e5 28 cb 3d e4 2c c2 be 40 16 c8 3b 60 31 bb 3e
       0.099199094 -0.37924874 0.006106168 0.36561108
000060 c2 a1 c7 be 1f 85 7a 3c f9 88 bf 3e 85 cd 32 3f
       -0.389906 0.015290528 0.3740919 0.6984485
000070 0c 5e e8 bc 23 6a 26 bf 79 56 a9 bd e0 5e d4 bb
       -0.028365158 -0.650057 -0.082684465 -0.0064810365
000080 75 cb 42 3d 22 e3 24 bf 95 bd b8 ba f8 bf 32 3f
       0.047557313 -0.6440908 -0.0014094586 0.6982417
000090 4e 1e 93 3c 47 37 8a 3b 68 3d 9d bb d4 b5 94 bc
       0.017958786 0.0042180154 -0.00479858 -0.018153109
0000a0 12 6d 56 bc 14 78 3a 3d e6 c8 1c 3e d1 ef a0 3b
       -0.013087528 0.04552467 0.15311012 0.004911401
0000b0 9c 1c 29 be 2f 74 c6 3c b4 55 c0 3c fa 25 80 bd
       -0.1651482 0.024225323 0.023478366 -0.062572435

conv1.bias f4 [16]
000000 ce 47 cc 3d dc 46 c3 3e 4f b7 a5 be 3a 2f d1 bf
       0.09974633 0.3814 -0.32366416 -1.6342537
000010 b1 08 6e 3f fa 07 c5 bf fc 0f 33 3f 50 af 8c be
       0.9298201 -1.5393059 0.69946265 -0.27477503
000020 6e a5 55 bf 0d ea 3b 3f 5d b8 36 3f 12 90 b6 bf
       -0.8345555 0.7340401 0.71375066 -1.4262717
000030 71 71 00 bf 1d ea 18 bf 1b ff 93 3d 14 c6 7d 3e
       -0.501731 -0.5973223 0.07226392 0.24782592

conv2.weight f4 [32, 16, 1]
000000 5f f4 99 3c 61 7b e7 bc 9e fa 5b 3c 20 65 e8 3c
       0.018793283 -0.028257074 0.013426451 0.028368533
000010 a3 d4 55 3d 8b 25 ba bc e5 d6 6a bd 58 2d 99 bb
       0.05220474 -0.02272298 -0.057333846 -0.004674595
000020 35 b1 22 3d c6 57 53 bd c9 c5 0c 3d a9 2d 3d bd
       0.03971978 -0.05159738 0.03436831 -0.046186123
000030 e0 fb 74 bd 51 d6 2e 3d de e3 c4 bc 5d 70 5c 3d
       -0.05981052 0.042684857 -0.024034437 0.053818095
000040 6f 37 d8 3b cd f1 93 3c b8 37 52 3d bb 92 11 bd
       0.006598405 0.018059636 0.05132267 -0.035540324
000050 49 43 96 bd bb f9 da 3c ef 66 91 bd 32 ef f0 bc
       -0.073370524 0.026730409 -0.07099711 -0.029410932
000060 d5 a0 54 3c c4 12 d6 bd 81 fd b8 3c 7b 87 ce bd
       0.0129777985 -0.10452798 0.022581818 -0.100844346
000070 b1 13 5f 3d 42 da c8 3d b0 24 c0 bb 78 0f fa 3c
       0.05446214 0.098072544 -0.0058637485 0.030524954
000080 51 59 9c bc 5c 0a b9 3d 04 c3 c8 3c b3 3f b8 3d
       -0.019085558 0.09035179 0.024507053 0.08996525
000090 ef cf 83 3c 8a 3b 9c bd f6 57 77 bd 95 3c 75 3c
       0.016090361 -0.07628544 -0.06038662 0.014968057
0000a0 82 c1 10 3d 4a 2f 15 bd 0d 7c bf 3c 9c ab 4d 3d
       0.035340793 -0.03642205 0.023374582 0.050212488
0000b0 d7 80 51 bd a4 d7 9f bd aa e9 e5 bc 58 93 08 3e
       -0.051148262 -0.07804802 -0.028065521 0.13337457
0000c0 60 72 53 bc 6b 06 81 3b 04 53 a5 3c ab f3 21 bd
       -0.012905687 0.0039375327 0.020181186 -0.03953902
0000d0 74 c1 72 3c e9 a0 a5 3c 9e 8f 3b bb ec ae c7 3a
       0.014816631 0.02021833 -0.0028619538 0.0015234626
0000e0 85 93 a1 3d 96 66 4e bd cf 3a e4 3b 6e 11 b4 bd
       0.07889465 -0.050390802 0.0069650183 -0.08792387
0000f0 66 e9 37 bb 34 f6 ee 3a 7b 70 51 bd 24 13 6b bd
       -0.00280627 0.0018231333 -0.05113266 -0.0573913
000100 e3 57 1d bd 2d fd 39 3b 65 73 21 3c cc 09 17 bd
       -0.038413893 0.0028379664 0.009854172 -0.036874577
000110 91 70 05 bd ad df cc 3c ad fb 34 bd 7f 30 06 3d
       -0.032578055 0.025009 -0.04418533 0.032761093
000120 2d c1 e7 bc d2 7d f0 3c c7 ef 79 bd 61 5f 9c 3c
       -0.028290356 0.02935687 -0.061019685 0.019088449
000130 6a 53 61 3c 29 3a 6a bd 9e 74 57 bc 68 06 bf bd
       0.013752798 -0.057184372 -0.013150362 -0.09327394
000140 8c 12 10 be 63 70 21 3e 76 48 21 3e 93 69 91 3d
       -0.14069575 0.15765528 0.15750298 0.07100215
000150 16 0c 3f 3c 42 09 a6 bd 2b 84 2d bd 25 8d a0 bc
       0.011660596 -0.081072345 -0.042362373 -0.019598553
000160 bd f3 1b 3e b2 65 88 3d 4c c2 a2 bc f4 f0 8d 3d
       0.15229698 0.06660022 -0.019868039 0.06930724
000170 ae 79 de 3a 71 12 ca 3d 19 70 3b be 2d 4d e7 3d
       0.0016973519 0.09866799 -0.1830448 0.11294017
000180 6e 36 5e bc ab 82 da bc c6 09 81 3d 8b ed 82 bd
       -0.013562782 -0.026673635 0.06300692 -0.06392964
000190 9c c7 b9 bd 99 12 1a 3d 5a 99 9d 3a 01 98 cb ba
       -0.090712756 0.037615392 0.0012023852 -0.0015532972
0001a0 f7 35 3a 3d 45 c9 d5 3d ab 9a 49 bd a0 06 cc ba
       0.04546162 0.1043878 -0.04921977 -0.0015565939
0001b0 5f b9 bc bc 23 c5 f8 3d 4f ea 21 bc cd 1d bc bc
       -0.02303761 0.12146976 -0.009882524 -0.022963429
0001c0 c6 c3 c2 bc 3c 06 38 3d 5d a0 0e 3d c0 90 31 3d
       -0.023774993 0.04492782 0.034820903 0.043350935
0001d0 07 60 56 bc 66 93 0e bd b3 06 14 be 3a 86 27 3d
       -0.013084418 -0.03480854 -0.1445568 0.040899493
0001e0 b3 02 f9 bc f8 d6 17 3d 9e a6 c4 3c cf 39 94 3d
       -0.030396795 0.037070245 0.02400523 0.072375886
0001f0 05 84 ea bc bf 92 34 bc c0 58 42 3d cc 49 83 3d
       -0.028627405 -0.011021315 0.04744792 0.0641056
000200 ad 15 ee bc 6d 63 df 3c 69 7e e2 39 c5 96 40 3d
       -0.02906307 0.02726909 0.00043200262 0.047018785
000210 e2 75 35 3d 8e 40 4f bd fb ff 87 3d ef c7 84 3c
       0.044301875 -0.050598674 0.06640621 0.016208617
000220 76 31 59 bb fe c3 ef ba fc 50 a2 bb 63 4b b6 3c
       -0.0033141053 -0.0018292663 -0.0049535017 0.022252744
000230 cb b5 a3 bd 25 bd 30 bd 18 50 97 3c f6 bd a8 3d
       -0.07993659 -0.043149132 0.018470809 0.08239357
000240 2a f9 85 3c 43 92 45 3d f1 f6 49 bd 35 5f a1 3d
       0.016354162 0.04823519 -0.049307767 0.078794874
000250 02 93 8d 3d c1 e6 7f bd 1d e0 21 3d 11 47 36 bc
       0.06912805 -0.062475923 0.03952037 -0.011125342
000260 c7 a3 52 3d c7 dc 98 3c 9b 90 be bc ab 67 48 bd
       0.05142572 0.018659962 -0.023262313 -0.04892699
000270 cc 00 9b bd 85 09 0f bd 97 aa 0f 3d eb 6d 5c 3d
       -0.07568511 -0.034921188 0.035074797 0.053815763
000280 b4 4a ac bc de 7e 93 3d 3a d7 aa 3b ca 9c c8 3d
       -0.021031715 0.07201932 0.0052136453 0.0979553
000290 cd f3 d9 3c 3f de a0 bd 15 47 d6 3c 4d 9e 19 3c
       0.026605511 -0.0785489 0.026156941 0.009376121
0002a0 06 d4 c4 bc 14 c2 cc bd 7a 04 95 3d 48 a8 1b bd
       -0.024026882 -0.09997955 0.072762445 -0.038002282
0002b0 ba 70 ac 3d f6 4e 09 be 4c 82 ac 3a 4c 0e 5f 3d
       0.084199384 -0.13409027 0.001316139 0.054456994
0002c0 48 45 13 3d d1 07 0d 3c 0b fa 0a 3e 39 62 0e 3e
       0.035954744 0.008607821 0.13571946 0.13904656
0002d0 32 b5 91 3d 13 49 05 be f6 7e 92 bd 3b f6 da bc
       0.071146384 -0.13016157 -0.07153122 -0.02672874
0002e0 b1 63 67 3d 8a a0 c3 be d6 8a 07 bd b1 c4 38 be
       0.056491558 -0.3820842 -0.03309139 -0.18043782
0002f0 4c 65 ae 3c c2 e9 6d bb 80 48 83 bc dd 9c 87 3d
       0.021288536 -0.003630266 -0.016025782 0.06621716
000300 d8 21 3a bd c4 40 ab 3c 47 86 62 3d 98 a7 1a 3d
       -0.045442432 0.020904906 0.055303838 0.037757486
000310 d2 33 03 bd d1 3a fd bc 78 dd 76 bb 45 5a e7 3c
       -0.03203184 -0.030911835 -0.0037668627 0.028241286
000320 3a 7a 42 bd b6 d8 33 bb fc 5d e2 bc 95 a4 3a 3d
       -0.047479846 -0.0027442402 -0.027632706 0.045567114
000330 5d 69 8f 3d b8 31 d2 bd a0 10 e7 3c 3f 2d 0b 3c
       0.07002518 -0.10263389 0.02820617 0.008494674
000340 b2 c3 c6 3c a3 c0 75 bc d6 1a 82 bd a6 28 80 bc
       0.024263237 -0.014999541 -0.06352775 -0.015644383
000350 0a 44 57 bd 9b 6f 44 3c e4 54 c8 bc 80 c9 8f bc
       -0.05255512 0.011989499 -0.024454542 -0.017552137
000360 ec 33 19 b9 99 47 b3 3c e9 a4 d5 bc 04 88 d8 3c
       -0.0001461056 0.021884726 -0.026079612 0.026432045
000370 98 24 5a 3d 80 ee 96 bd c5 5f 55 3d 58 38 68 bd
       0.053257555 -0.07369709 0.052093286 -0.05669436
000380 6d 98 e9 3a ca 1b 26 bd 76 e5 f8 bd a9 af 44 bd
       0.0017821916 -0.040553845 -0.12153141 -0.048019085
000390 c2 64 99 bc 4d d3 bd 3c cf 90 0a 3c f6 03 1a bb
       -0.018724803 0.023172045 0.008457377 -0.0023500896
0003a0 2f f7 2c 3d 37 71 37 bd 12 4f 21 3d df 23 7e bd
       0.04222792 -0.044785704 0.039382048 -0.062045928
0003b0 ed b0 ee bc 07 5b 81 3a ab f2 1b 3d a9 9f 12 bd
       -0.0291371 0.0009869047 0.038073223 -0.035796795
0003c0 f2 b1 8c 3c c2 85 08 bc 0b 09 a3 bc b0 44 06 bd
       0.017174695 -0.008332672 -0.019901773 -0.03278035
0003d0 24 b2 11 bd e7 e4 b7 3c 95 9f 74 3d 90 03 5d bd
       -0.03557028 0.022448016 0.0597225 -0.053958476
0003e0 2d 02 86 bd d8 b6 46 3d d2 cd 52 3d 09 74 3d 3d
       -0.06543384 0.048514217 0.051465817 0.046253238
0003f0 15 a2 35 ba 0c d0 22 bd 07 43 c7 bd 09 14 a6 bd
       -0.0006928754 -0.03974919 -0.09729581 -0.0810929

conv2.bias f4 [32]
000000 c2 34 a0 be b8 aa 44 3e 38 90 4e be ff 95 ab 3e
       -0.3129025 0.19205749 -0.20172203 0.33512875
000010 01 0e 8b 3d f5 37 30 3f dc 2a fe 3e e1 fc 39 3e
       0.067897804 0.68835384 0.49642074 0.18162872
000020 8b 9f 01 bf bd 01 b3 be e6 84 91 be fc 49 fc bd
       -0.5063407 -0.34962264 -0.28421706 -0.12318799
000030 f1 42 c3 3d 42 b9 28 3e b2 0e d1 3d 55 b7 c4 be
       0.095342524 0.1647692 0.10207881 -0.3842112
000040 c3 57 c4 be 65 7b 22 bf c2 39 23 bc c1 e6 12 bf
       -0.38348207 -0.63469535 -0.009962501 -0.5738335
000050 2f b3 8d 3d ab 5d f1 bd d4 4c f3 bc cf dd eb 3e
       0.06918942 -0.11785444 -0.02969972 0.46067664
000060 19 67 48 be 8d ad 89 be 71 d0 e7 3e 37 02 7d 3e
       -0.19570579 -0.2689022 0.45276216 0.24707876
000070 f0 3f 2b bd e7 30 6d be c7 ad 07 bf 08 a6 92 be
       -0.041809022 -0.23163186 -0.5299954 -0.28642297

fc.weight f4 [1, 32]
000000 c1 2f 75 ba f5 e3 07 bb 67 87 95 ba 11 03 9d 3b
       -0.0009353124 -0.0020735238 -0.0011408151 0.0047916253
000010 fc 57 6e 3b 1f 14 17 3b 86 d1 22 3b 81 c2 30 bb
       0.003636836 0.0023052765 0.0024844124 -0.0026971402
000020 84 1f 89 3c 52 75 8c b9 45 44 63 ba 1a 9a 45 ba
       0.01673866 -0.0002679029 -0.0008669536 -0.00075379165
000030 2b 44 47 ba 02 95 98 3a 26 c5 45 3c e3 1e 0d 3c
       -0.00076014054 0.0011641087 0.01207093 0.008613321
000040 7a e2 2e ba 7f 3a 66 bb 61 5f 85 b9 e8 40 e5 3a
       -0.0006671321 -0.0035130081 -0.000254388 0.0017490657
000050 e8 25 9e bb dc 33 03 3f 86 da 0b 3f a3 c9 38 3b
       -0.004826296 0.51251006 0.54630315 0.0028196357
000060 f7 97 14 ba 92 e3 69 bb 2d a0 8e be 0a eb 7e 3a
       -0.00056683965 -0.003568862 -0.2785658 0.00097243546
000070 59 4f 79 3b 04 37 b6 3a 09 6d 67 bb a9 71 81 ba
       0.003804168 0.0013901894 -0.0035312793 -0.0009875792
