model_list/2001/humidity_winter_2001_v2.pth (torch, 5386 bytes, 5 tensors)

conv1.weight f4 [16, 3, 1]
0	0xbeb7fb97	-0.35934135
1	0x3ba10e57	0.0049150395
2	0x3eac739f	0.33681962
3	0x3d6886da	0.05676923
4	0xbc37c366	-0.01121602
5	0xbd0c1b04	-0.03420545
6	0x3cab7bd4	0.02093307
7	0x3f1cd416	0.6126112
8	0x3d81eb3d	0.06343696
9	0xbe9f327e	-0.3109321
10	0x3b037a3c	0.002006187
11	0x3e9f6f50	0.31139612
12	0x3dce5da9	0.10076458
13	0xbc93b89d	-0.018032366
14	0xbd9b31a7	-0.0757783
15	0xbe195f25	-0.14977701
16	0x3c681fb8	0.014167719
17	0x3e15c226	0.14624843
18	0xbe9298fc	-0.28632343
19	0x3af4f322	0.0018688182
20	0x3e943e04	0.28953564
21	0x3d9ba4a0	0.07599759
22	0xbb2ebdf9	-0.0026663525
23	0xbdb82cd9	-0.08992929
24	0x3e498b60	0.19682074
25	0xbc785e9c	-0.015159275
26	0xbe35aadb	-0.17740957
27	0x3dd8f84b	0.10594233
28	0xbc029f6f	-0.007972582
29	0xbe05673a	-0.13027659
30	0xbe1882f5	-0.14893706
31	0x3c1f23cc	0.0097131245
32	0x3e30cd2e	0.1726577
33	0x3e9f8fae	0.31164306
34	0xbc26143e	-0.010136662
35	0xbe9ac24f	-0.3022637
36	0x3e267afc	0.16257852
37	0xbf1fbad4	-0.6239445
38	0xbcc4f017	-0.024040265
39	0xbd208ba7	-0.039195683
40	0x3d70978c	0.058738276
41	0xbcea2cf8	-0.028585896
42	0x3e879660	0.26481915
43	0xbe230dbe	-0.15923211
44	0xbd1d37dd	-0.038383354
45	0xbeb96d73	-0.36216316
46	0x3b96ccd5	0.0046020546
47	0x3ebc23c6	0.36746043

conv1.bias f4 [16]
0	0x3ec33b3f	0.3813114
1	0xbe2c6ba6	-0.1683794
2	0xbf7b4d45	-0.9816478
3	0xbcf27786	-0.029598009
4	0xbdb6929a	-0.08914681
5	0xbe875655	-0.26433054
6	0xbd5ed0c9	-0.05439833
7	0x3ea5e72d	0.32402936
8	0xbd1954cf	-0.037434395
9	0x3f2b9272	0.6702033
10	0xbf39d40b	-0.72589177
11	0x3ddc0abe	0.107442364
12	0x3f26dae7	0.6517777
13	0xbf5df049	-0.8669477
14	0x3fb8a067	1.4423951
15	0xbe8a6c45	-0.27035728

conv2.weight f4 [32, 16, 1]
0	0xbd592fad	-0.053023983
1	0x3c939e94	0.018019952
2	0xbdb98d70	-0.0906018
3	0xbc99da48	-0.018780842
4	0xbd249da2	-0.040189393
5	0x3d3e92b0	0.04652661
6	0x3d8d7ecf	0.069089524
7	0x3d6cb7b3	0.057792377
8	0xbc3b355f	-0.011426299
9	0x3cc4d496	0.02402715
10	0xbd56f1ab	-0.052476566
11	0xbda4a4f1	-0.080392726
12	0xbdcf5119	-0.1012289
13	0x3db471da	0.08810778
14	0x3dd29744	0.10282758
15	0x3d37a512	0.044835158
16	0xbcb88421	-0.022523941
17	0xbdb1b151	-0.086763985
18	0x3dcf2964	0.101153165
19	0xbd20e79f	-0.03928339
20	0xbd800b95	-0.06252209
21	0xbc160fee	-0.009159071
22	0xbd47bc1f	-0.04876339
23	0xbd11856b	-0.035527628
24	0x3d0eefc9	0.034896646
25	0x3d7102a0	0.058840394
26	0xbde796fe	-0.11308096
27	0xbc2cdd4d	-0.010550809
28	0x3df6040b	0.1201249
29	0x3d8cb4e7	0.06870442
30	0x3d55b7fb	0.05217741
31	0xbd971ba5	-0.0737832
32	0x3cd1d030	0.025611967
33	0x3c84ce3b	0.01621162
34	0x3d48c4ab	0.049015682
35	0x3cccf84a	0.025020737
36	0xbc1c233a	-0.009529883
37	0x3c14551a	0.009053493
38	0xbc88e6c2	-0.016711596
39	0xbbeacdce	-0.007165647
40	0x3b47d215	0.003049021
41	0x3d4b08f6	0.049569093
42	0xbd484b06	-0.048899673
43	0xbd3a415a	-0.04547248
44	0x3d4c2d38	0.04984781
45	0xbcd9a7bd	-0.026569242
46	0xbdf74a1c	-0.12074682
47	0x3d03b945	0.03215911
48	0xbca257b1	-0.019817205
49	0xbb5d8a96	-0.0033804527
50	0xbe2b06e9	-0.16701855
51	0x3d83e655	0.06440417
52	0x3c9872ef	0.018609492
53	0xbd9044ec	-0.07044396
54	0x3cd60947	0.02612747
55	0xbdcbd508	-0.09952742
56	0xbc320e95	-0.010867734
57	0xbd9ead22	-0.07747866
58	0x3e045c53	0.12925844
59	0x3d9fcb67	0.07802468
60	0xbe515e50	-0.20446134
61	0xbcd97b7b	-0.026548138
62	0x3dbea5e2	0.093089834
63	0x3d050f5d	0.032485355
64	0x3d5a0cb7	0.053234782
65	0xbd2463ba	-0.04013417
66	0xbe92e497	-0.28690025
67	0xbdb9a81a	-0.09065266
68	0xbe619d9d	-0.22032781
69	0x3eab5bee	0.33468574
70	0x3d3f2d8f	0.046674307
71	0x3d13ff90	0.036132395
72	0x3ad302a3	0.0016098808
73	0x3db3bb0d	0.087759115
74	0x3e36a1e7	0.17835198
75	0x3e061101	0.13092424
76	0x3f0c2c8b	0.5475547
77	0x3e4e4db6	0.20146832
78	0xbd6a0976	-0.05713793
79	0x3d32ad0e	0.04362207
80	0x3ca60ef4	0.020270802
81	0x3e5f2480	0.21791267
82	0x3f10c548	0.5655103
83	0xbe173525	-0.14766367
84	0xbe65a85c	-0.22427505
85	0x3e0e4ac0	0.13895702
86	0x3ddee296	0.108830616
87	0x3e4394c4	0.19099718
88	0x3ca32d85	0.019919166
89	0x3e0a59e3	0.13510852
90	0x3bafcbbd	0.0053648637
91	0xbe5aa9a0	-0.2135377
92	0xbf06ed66	-0.5270599
93	0x3e082514	0.13295394
94	0xbe36c32c	-0.1784789
95	0xbd9058ec	-0.070482105
96	0xbde56d90	-0.11202538
97	0xba9fcdc8	-0.0012192065
98	0x3da81958	0.08207959
99	0x3e4c6673	0.19960956
100	0xbd2ba127	-0.041901734
101	0xbdd775f1	-0.105205424
102	0xbdbeb1ef	-0.09311282
103	0xbe17632e	-0.14783928
104	0x3dfc5865	0.123215474
105	0x3d73389e	0.059380166
106	0xbc8cda2c	-0.017193876
107	0xbd2a9bdc	-0.041652545
108	0x3db9fcfa	0.090814546
109	0x3e6d4b99	0.2317337
110	0xbb3446a7	-0.0027507932
111	0xbd998bbe	-0.07497357
112	0x3c5d179b	0.0134943975
113	0xbd89e243	-0.06732609
114	0x3e08723d	0.13324828
115	0x3b641b8d	0.003480646
116	0x3d83453e	0.06409691
117	0xbdfee7ee	-0.12446581
118	0x3de86f7d	0.1134939
119	0xbd976426	-0.07392149
120	0x3bcfdf77	0.0063437778
121	0x3d4fc390	0.050723612
122	0x3c1c4ff7	0.0095405495
123	0x3df24d96	0.118312046
124	0x3e199163	0.14996867
125	0xbba76d19	-0.005109441
126	0xbddbe582	-0.107371345
127	0xbcc7a3b1	-0.024370046
128	0x3b7e3c14	0.0038793134
129	0xba180450	-0.00057989825
130	0xbd11e94a	-0.035622872
131	0x3c3e21ad	0.011604709
132	0x3cfc0fe6	0.0307693
133	0xbd7e91ae	-0.06215065
134	0x3c749f00	0.014930487
135	0x3afd3e0b	0.0019320858
136	0x3cfce00f	0.030868558
137	0x3c8dd0ca	0.017311472
138	0xbd3ef114	-0.04661663
139	0x3d907f3c	0.07055518
140	0xbd614d82	-0.055005558
141	0x3d66d4d5	0.056355316
142	0x3dbad218	0.091221035
143	0x3bac0b18	0.005250346
144	0x3ba23c3d	0.0049510286
145	0xbd38c462	-0.04510916
146	0xbdd606d9	-0.10450525
147	0x3ca40d01	0.020025732
148	0x3cf838d4	0.030300535
149	0x3c0207a0	0.007936388
150	0xbd3adbe1	-0.04561985
151	0x3d23de7f	0.04000711
152	0x3d561b41	0.052272085
153	0x3c6ddf87	0.014518625
154	0xbd63774a	-0.055533685
155	0x3d33a1a5	0.043855328
156	0xbe0d11a7	-0.13776265
157	0x3d6a4f9e	0.057204835
158	0x3e34f683	0.17672162
159	0xbb302261	-0.002687596
160	0xbd12b9ca	-0.035821714
161	0x3d0890ab	0.03334109
162	0x3c807c72	0.01568434
163	0xbcc3d49d	-0.023905093
164	0xbc401674	-0.011724103
165	0xbc8d934f	-0.017282156
166	0x3d50cba5	0.05097546
167	0xbb41285a	-0.0029473514
168	0x3dba2ba9	0.09090359
169	0xbc497dca	-0.012298057
170	0x3ce8ab24	0.028401919
171	0xbabbf942	-0.0014341252
172	0x3c8d11bd	0.017220372
173	0xbdc595f4	-0.09647742
174	0xbcfd1daf	-0.030897943
175	0xbdf113ba	-0.11771341
176	0xbd9c6595	-0.07636563
177	0x3d26cf9c	0.040725335
178	0xbba10e64	-0.0049150456
179	0xbe58955f	-0.2115073
180	0x3dd5eb28	0.10445243
181	0x3e1ed531	0.15511014
182	0x3c8371c5	0.01604546
183	0xbd3baca1	-0.04581893
184	0x3dbaaeed	0.09115396
185	0xbe1dee64	-0.1542297
186	0xbceb6ab2	-0.0287374
187	0xbd5a4f87	-0.0532985
188	0x3c05c992	0.008165734
189	0xbccef2fa	-0.025262345
190	0xbd5d4ec1	-0.054030184
191	0x3d22284f	0.039589223
192	0x3c11f9e5	0.008909677
193	0xbd8126eb	-0.06306251
194	0x3e2dff20	0.16991854
195	0x3cf0ef26	0.02941091
196	0x3d857e68	0.06518251
197	0xbdbca099	-0.09210319
198	0xbd73bdfe	-0.059507363
199	0x3cc3efa5	0.023917982
200	0x3d8c4d17	0.06850641
201	0xbca63f31	-0.020293804
202	0xbd0c2c73	-0.034222078
203	0x3c4e6721	0.01259783
204	0x3e428b06	0.18998346
205	0xbdee74a2	-0.1164334
206	0xbe17844b	-0.1479656
207	0xbd820590	-0.06348717
208	0x3b8e1944	0.004336508
209	0x3ce769eb	0.028248748
210	0x3d8e7e10	0.06957638
211	0xbd21ffa9	-0.039550457
212	0x3d563d58	0.052304596
213	0xbd3a8c5f	-0.045544025
214	0xbc1065cf	-0.008813336
215	0x3d9ef8a7	0.077622704
216	0x3ccda45b	0.025102785
217	0x3d27ff1e	0.041014783
218	0xbc728492	-0.014802115
219	0x3d37ebc8	0.044902593
220	0x3db4058c	0.087901205
221	0x3d2c896f	0.042123254
222	0xbd8c0e9b	-0.06838723
223	0xbcfdaddb	-0.03096669
224	0xbe3a42bc	-0.1818952
225	0xbc9e2af5	-0.019307593
226	0x3ed505f7	0.41606113
227	0xbdb68f92	-0.089141026
228	0x3d326a0c	0.043558165
229	0xbe831ef5	-0.25609556
230	0x3d44c591	0.048039977
231	0xbd63f483	-0.055653106
232	0x3e628828	0.22122252
233	0xbd0f00e6	-0.034912966
234	0x3d11e7d2	0.03562147
235	0x3d85317a	0.065035775
236	0xbec63b24	-0.38716996
237	0x3e30a219	0.17249335
238	0x3e25d756	0.16195425
239	0x3deb0b8a	0.1147681
240	0x3c680765	0.014161919
241	0x3cd8868d	0.026431346
242	0xbcbe0e9a	-0.023200322
243	0xbba78689	-0.0051124734
244	0xbce21453	-0.027597582
245	0x3cde3817	0.027126355
246	0xbd2f106f	-0.04274028
247	0xbd318a42	-0.043344744
248	0xbcd938da	-0.026516367
249	0xbdba9b04	-0.09111598
250	0xbbc47fbf	-0.005996674
251	0xbd6dca8b	-0.05805449
252	0xbc951b2d	-0.018201435
253	0x3bc3ed1f	0.005979195
254	0xbcc26c14	-0.023733176
255	0x3d012726	0.031531475

conv2.bias f4 [32]
0	0x3e70be02	0.23509982
1	0xbdba595e	-0.09099077
2	0xbe335a85	-0.17514999
3	0x3d19b113	0.037522387
4	0xbe8893c3	-0.26675233
5	0x3e92e792	0.286923
6	0xbe734584	-0.23756987
7	0xbe8ca99d	-0.27473155
8	0xbead2f47	-0.33825132
9	0xbeb9fedb	-0.36327252
10	0xbe26caa4	-0.16288239
11	0x3e4c5f42	0.19958213
12	0xbecfa82e	-0.40557998
13	0xbd0e1ce3	-0.034695517
14	0xbd8a79dc	-0.06761524
15	0x3e95daec	0.29268587
16	0x3d344482	0.044010647
17	0xbeb62954	-0.35578406
18	0xbedfbab5	-0.43697134
19	0xbe675f05	-0.22594841
20	0x3e964808	0.2935183
21	0xbd95bc16	-0.07311265
22	0x3df947c7	0.121718936
23	0xbe207442	-0.15669349
24	0xbde82d7f	-0.11336803
25	0x3e6149a4	0.22000748
26	0x3ec06b44	0.37581837
27	0xbea2d286	-0.31801242
28	0x3d33fd38	0.04394266
29	0x3ea6c2d2	0.3257051
30	0xbe8b7e8c	-0.27244985
31	0x3d0f2bfd	0.03495406

fc.weight f4 [1, 32]
0	0xb83ae642	-4.45603e-05
1	0xbaf01004	-0.001831532
2	0xba6907b4	-0.00088893925
3	0xba697176	-0.00089051516
4	0xbe8ad263	-0.27113637
5	0x3ec6c31a	0.38820726
6	0xbabbbe65	-0.001432371
7	0xb84e6180	-4.920503e-05
8	0xb93ff3d4	-0.00018306012
9	0x379740af	1.8030723e-05
10	0xb9c20b4f	-0.0003701099
11	0xb8847898	-6.316713e-05
12	0xbaaabf0a	-0.0013026905
13	0xba5d3765	-0.00084387354
14	0x3e9255ba	0.2858103
15	0x39ce3ef5	0.00039338288
16	0xbe78708b	-0.24261682
17	0xb9e003de	-0.0004272749
18	0xba37b8e3	-0.0007008446
19	0x3a83a6e4	0.0010044244
20	0xba70326e	-0.0009162788
21	0xbe816098	-0.25269008
22	0xbb479bd6	-0.0030457876
23	0x3eb2d7df	0.34930322
24	0x3ae4ea52	0.0017464852
25	0xbaaef8a1	-0.0013349244
26	0x3a138a15	0.0005628181
27	0x3a8e1725	0.0010840638
28	0xba4ba528	-0.00077684456
29	0x3a1ecf7a	0.0006058138
30	0x3a509488	0.0007956703
31	0xb9fe1c06	-0.00048467534
