model_list/2001/humidity_summer_2001_v1.pth (torch, 5580 bytes, 5 tensors)

conv1.weight f4 [16, 3, 1]
-0.53507304 0.013205488 0.4953825 -0.29067966 0.008230214 0.263046 -0.4590159 0.01912745
0.45000687 0.09960506 -0.35357073 -0.5126372 -0.8184075 0.078703225 0.6237958 0.19070658
0.000657038 -0.20498829 -0.08488951 -0.0038311742 0.063523665 -0.39854407 0.09086094 0.5239691
-0.3434397 0.5547625 0.24953078 -0.029084016 0.000470858 0.017088633 -0.081747234 -0.0023801317
0.09075716 -0.24971825 0.030272108 0.16583966 -0.425093 0.15467533 0.049132574 -0.22748116
0.009019293 0.23611137 -0.7385439 0.28985828 0.051736426 -0.0868882 -0.0041475976 0.13090228
00000000: 8cfa 08bf d55b 583c c6a2 fd3e f7d3 94be
00000010: 05d8 063c f7ad 863e 2204 ebbe 2cb1 9c3c
00000020: 4d67 e63e bdfd cb3d 3907 b5be 313c 03bf
00000030: 2783 51bf 282f a13d 15b1 1f3f 9648 433e
00000040: 133d 2c3a 73e8 51be 8dda adbd 7014 7bbb
00000050: b218 823d f80d ccbe 4d15 ba3d d722 063f
00000060: 54d7 afbe ea04 0e3f ff84 7f3e 9a41 eebc
00000070: 7edd f639 76fd 8b3c 186b a7bd fcfb 1bbb
00000080: e4de b93d 24b6 7fbe 36fd f73c dfd1 293e
00000090: caa5 d9be 3663 1e3e 3d3f 493d d2f0 68be
000000a0: a8c5 133c 2ec7 713e 3711 3dbf 4e68 943e
000000b0: 93e9 533d 71f2 b1bd 92e8 87bb 3f0b 063e

conv1.bias f4 [16]
0.21925513 0.09211784 -0.91145575 1.0477923 0.08221242 0.32289746 0.6728664 -0.9297465
-0.66868776 0.16706292 -0.051760014 0.24298316 -0.36310205 -0.7764259 -0.26462173 -0.83748806
00000000: 6b84 603e 47a8 bc3d 2a55 69bf 0f1e 863f
00000010: fc5e a83d d152 a53e f940 2c3f de03 6ebf
00000020: 1f2f 2bbf 8b12 2b3e 4f02 54bd 94d0 783e
00000030: 83e8 b9be d9c3 46bf 807c 87be 9e65 56bf

conv2.weight f4 [32, 16, 1]
0.17014411 -0.023780564 0.06350157 0.05584795 -0.07817749 0.0831032 -0.0791155 -0.12263734
0.070635475 -0.11780016 -0.047379225 -0.09833672 -0.0624342 -0.09478613 0.048461486 -0.14896454
0.045022633 -0.005447549 0.15592255 -0.06145967 -0.1887785 -0.03197375 0.055181548 0.14479071
-0.105186135 -0.012666021 0.07118952 -0.0747407 -0.058744323 0.07316184 0.1806901 0.08497579
-0.15630004 0.045042314 -0.06060377 0.010610019 0.013751546 -0.12405668 0.07989196 0.2732544
-0.04513359 -0.027970111 0.03999384 0.0052995663 0.00196199 0.06885824 0.014626856 0.08744032
0.22574535 -0.08176472 0.03842983 -0.07838921 0.09822409 0.044451863 -0.068630695 -0.12615862
-0.038476482 0.09761569 -0.02879243 -0.08460808 0.06052572 -0.08574256 -0.06028046 -0.0089415945
0.21484949 0.1554349 -0.15672503 0.43155748 -0.05238919 0.12075287 -0.08809984 -0.28738794
-0.33139843 0.08035837 -0.06094732 0.153014 0.20754658 0.15727529 -0.17865773 -0.17278928
0.13401726 0.012353435 0.09820334 0.006285229 -0.2038045 0.054636266 -0.21545926 0.11094002
-0.03864595 -0.10573576 -0.22050418 0.092822954 -0.30550498 -0.009571285 0.26231176 -0.11317451
0.038110003 0.049409747 -0.02311246 -0.13041003 -0.04184784 -0.081751615 -0.00041171032 0.07302701
-0.14658555 -0.011266757 0.03736554 0.06015516 -0.021413492 -0.07770279 0.12026233 0.105122186
-0.075915426 -0.024985826 -0.15282562 -0.08002813 0.0074870805 -0.013843873 0.12648763 0.027194334
-0.07669294 0.15441152 0.1521757 -0.016497476 0.25665498 -0.0073404075 -0.11083367 0.060722847
-0.058861177 0.11282862 0.16692893 -0.3656409 -0.1363516 -0.18473564 -0.22498146 -0.15628657
0.37941068 0.1411075 -0.3088416 -0.0040110867 -0.24006584 0.16898423 0.20091152 0.16594622
0.08895448 0.053623226 -0.034584876 -0.29203677 -0.014527254 0.24790287 0.07358317 0.26788747
0.6057546 -0.02297502 0.18767834 0.18563285 0.06431935 -0.10668194 -0.017143661 -0.14801106
0.14857015 0.015951369 0.0038287272 -0.027133344 -0.19141327 0.055494275 -0.14300548 -0.02411008
-0.036303286 0.0028964304 -0.20290528 0.096588105 -0.0262825 -0.13275877 0.10856734 -0.008771675
0.1232052 0.078598745 -0.089033484 0.23024043 -0.01025181 0.08068112 -0.069810435 0.20582373
0.18776649 -0.032433193 -0.07903443 0.08854007 -0.30896738 0.07303518 0.039399866 -0.16233587
0.15732071 0.0025782313 0.15393618 0.1013568 -0.32055596 -0.100872606 -0.08721068 0.2607607
0.027176626 -0.011957729 -0.13678253 0.16444947 -0.021113632 -0.015113317 0.09513669 -0.022295887
-0.16354097 0.23695517 0.00293875 -0.14360078 0.056493532 0.08793924 0.17887151 -0.1366152
0.25918415 0.20434287 0.05823945 0.028554361 0.009835274 0.09859069 -0.26122564 0.026051989
-0.28440925 0.09442899 -0.10261991 -0.13561694 -0.0048767687 -0.022003002 0.10032023 0.067955874
-0.15581554 -0.033555344 0.0065193735 -0.15916334 0.23367485 -0.027088141 0.04960671 -0.0015004154
0.060899656 0.066484116 -0.070916586 -0.049801186 -0.081677765 -0.046971943 -0.038427424 0.14632764
0.42307836 0.096182875 -0.23025553 -0.17879012 0.1523733 -0.04240208 0.112298034 0.19935471
00000000: 423a 2e3e 75cf c2bc 1c0d 823d d2c0 643d
00000010: 851b a0bd 0332 aa3d 4f07 a2bd 4929 fbbd
00000020: 55a9 903d 3641 f1bd b810 42bd c364 c9bd
00000030: 01bb 7fbd 3b1f c2bd 8d7f 463d 298a 18be
00000040: a769 383d 5a81 b2bb 29aa 1f3e 23bd 7bbd
00000050: 274f 41be e8f6 02bd 0c06 623d 0444 143e
00000060: d46b d7bd 2485 4fbc d0cb 913d a711 99bd
00000070: e39d 70bd e0d5 953d d306 393e c907 ae3d
00000080: 1e0d 20be 4a7e 383d a93b 78bd a5d5 2d3c
00000090: 2a4e 613c 6e11 febd 659e a33d 00e8 8b3e
000000a0: 00de 38bd 9321 e5bc 95d0 233d fca7 ad3b
000000b0: bb94 003b 8d05 8d3d 7ba5 6f3c e913 b33d
000000c0: ca29 673e 4374 a7bd 9968 1d3d 868a a0bd
000000d0: b629 c93d 2813 363d 408e 8cbd ba2f 01be
000000e0: 8499 1dbd bcea c73d 1ade ebbc 0047 adbd
000000f0: d1e9 773d cc99 afbd a5e8 76bd c47f 12bc
00000100: 8101 5c3e 542a 1f3e 877c 20be 1af5 dc3e
00000110: 0c96 56bd 484d f73d b06d b4bd 8324 93be
00000120: 0ead a9be ee92 a43d e6a3 79bd b4af 1c3e
00000130: 1787 543e c60c 213e 0df2 36be acef 30be
00000140: d23b 093e 1066 4a3c d51e c93d 53f4 cd3b
00000150: 20b2 50be 47ca 5f3d 5aa1 5cbe 8534 e33d
00000160: 374b 1ebd fd8b d8bd d9cb 61be f619 be3d
00000170: 266b 9cbe e1d0 1cbc ba4d 863e 0ac8 e7bd
00000180: 3c19 1c3d e061 4a3d 5756 bdbc 358a 05be
00000190: a468 2bbd 646d a7bd d3da d7b9 2f8f 953d
000001a0: 861a 16be 3498 38bc 9c0c 193d 4265 763d
000001b0: 596b afbc a422 9fbd 194c f63d 4d4a d73d
000001c0: 8c79 9bbd 13af ccbc 527e 1cbe cae5 a3bd
000001d0: 2f56 f53b 69d1 62bc f985 013e a7c6 de3c
000001e0: 3011 9dbd 0e1e 1e3e f2d3 1b3e b725 87bc
000001f0: 4868 833e cd87 f0bb c3fc e2bd 85b8 783d
00000200: 6b18 71bd b112 e73d 6bef 2a3e 4935 bbbe
00000210: c19f 0bbe 572b 3dbe 8a61 66be 9609 20be
00000220: 1e42 c23e 7c7e 103e 7c20 9ebe 6f6f 83bb
00000230: d2d3 75be 340a 2d3e c0bb 4d3e ceed 293e
00000240: c42d b63d 07a4 5b3d dfa8 0dbd d885 95be
00000250: b803 6ebc 40da 7d3e c6b2 963d 8c28 893e
00000260: bc12 1b3f 1c36 bcbc c02e 403e 8a16 3e3e
00000270: ddb9 833d 107c dabd dd70 8cbc 3690 17be
00000280: c622 183e 72ac 823c 62eb 7a3b bf46 debc
00000290: d701 44be f74d 633d 0770 12be 8182 c5bc
000002a0: c1b2 14bd 0ad2 3d3b 67c6 4fbe fccf c53d
000002b0: 664e d7bc eaf1 07be 8e58 de3d 12b7 0fbc
000002c0: 0253 fc3d 61f8 a03d 3057 b6bd 26c4 6b3e
000002d0: 35f7 27bc 253c a53d c6f8 8ebd 75c3 523e
000002e0: dc45 403e abd8 04bd cedc a1bd 7f54 b53d
000002f0: f930 9ebe 7893 953d c161 213d 603b 26be
00000300: ae18 213e 8bf7 283b 72a1 1d3e 2794 cf3d
00000310: e91f a4be 4c96 cebd 839b b2bd 6d82 853e
00000320: 84a1 de3c 5aea 43bc b810 0cbe 7165 283e
00000330: 7ff6 acbc d99d 77bc 06d7 c23d dda5 b6bc
00000340: 4977 27be 60a4 723e 0b98 403b 150c 13be
00000350: c365 673d 7d19 b43d 182a 373e dbe4 0bbe
00000360: c9b3 843e 423f 513e 7d8c 6e3d d6ea e93c
00000370: 2124 213c eae9 c93d 5ebf 85be fb6a d53c
00000380: 179e 91be fc63 c13d 632a d2bd 2bdf 0abe
00000390: 4dcd 9fbb a43f b4bc b174 cd3d 732c 8b3d
000003a0: 1c8e 1fbe 5471 09bd 78a0 d53b b7fb 22be
000003b0: 7648 6f3e f3e7 ddbc 6830 4b3d 96a9 c4ba
000003c0: eb71 793d d328 883d b73c 91bd 54fc 4bbd
000003d0: ac46 a7bd a765 40bd 1366 1dbd ead6 153e
000003e0: ba9d d83e 87fb c43d 1bc8 6bbe c214 37be
000003f0: bf07 1c3e cead 2dbd 83fc e53d a423 4c3e

conv2.bias f4 [32]
0.16697077 0.25592878 -0.16530883 -0.21707779 0.15603833 0.29556707 -0.006343963 -0.18731521
-0.28111616 0.0029295462 0.31050017 -0.40649134 0.27668008 -0.25132567 0.14210479 -0.14147018
0.20612657 -0.06787517 0.23522843 0.058360998 -0.2700449 0.17212872 0.3649841 0.35811457
0.041917186 -0.47435454 0.035988458 -0.2632618 -0.03693856 -0.047303684 -0.3851275 0.050471723
00000000: 63fa 2a3e 1909 833e b846 29be a449 5ebe
00000010: 83c8 1f3e 9154 973e 05e1 cfbb 8fcf 3fbe
00000020: 75ee 8fbe a1fd 3f3b e1f9 9e3e a21f d0be
00000030: 03a9 8d3e c2ad 80be eb83 113e 8fdd 10be
00000040: d812 533e 2302 8bbd b9df 703e f10b 6f3d
00000050: 5343 8abe 8342 303e 32df ba3e cb5a b73e
00000060: 5bb1 2b3d 99de f2be a268 133d 40ca 86be
00000070: e34c 17bd 82c1 41bd 6f2f c5be 70bb 4e3d

fc.weight f4 [1, 32]
0.0044529545 -0.0019798211 -0.0031473723 -0.00020700123 -0.27562287 0.00038387382 -0.0015660261 -0.00035151324
0.23420297 0.33500636 0.0010835608 0.0005089017 -0.0017493486 0.12369802 0.0019329487 0.19055171
0.0013042638 0.0025327397 -0.23312294 -0.0017142644 0.0015758156 -0.0010648152 -0.0004193798 -0.2311611
0.34247997 0.15031092 -0.31428972 -0.00023756996 -0.0004147998 0.0012950473 -0.0017367235 0.15886319
00000000: 17ea 913b e3bf 01bb 2544 4ebb 780e 59b9
00000010: 711e 8dbe ac42 c939 1e43 cdba 4f4b b8b9
00000020: e7d2 6f3e f485 ab3e 4406 8e3a d167 053a
00000030: 664a e5ba 6355 fd3d ff5a fd3a fd1f 433e
00000040: d5f3 aa3a 52fc 253b c8b7 6ebe 2bb1 e0ba
00000050: 998b ce3a 4591 8bba 34e0 dbb9 7fb5 6cbe
00000060: 8959 af3e 1beb 193e 95ea a0be 331c 79b9
00000070: 7d79 d9b9 94be a93a c5a2 e3ba 08ad 223e
