model_list/2001/humidity_winter_2001_v4.pth (torch, 5322 bytes, 5 tensors)

conv1.weight f4 [16, 3, 1]
000000 91 b6 0d 3d 1c 55 53 bb d5 0f ac 3c 40 7a d1 be
       0.034597937 -0.0032246774 0.021003643 -0.40913582
000010 74 37 a7 3b a7 08 d0 3e b3 4a 99 3d 16 43 2f bb
       0.005103046 0.406316 0.07484951 -0.0026742867
000020 f8 02 93 bd 35 d4 c9 3e aa 05 eb bb c7 de cb be
       -0.071783006 0.39419714 -0.007172306 -0.39818403
000030 c8 17 81 be 67 f2 15 3c 1c f2 5a 3e 98 22 ef 3d
       -0.25213456 0.0091520315 0.2138142 0.1167652
000040 89 b1 65 bc e0 a4 f3 bd 0c 66 91 bc 2b 9c 9d 39
       -0.014019378 -0.11896682 -0.017748855 0.00030061728
000050 07 01 53 3c e1 16 dd be ee b1 9e 3b 07 ec d9 3e
       0.012878663 -0.43181518 0.004842988 0.42562887
000060 4c 54 fb 3d 7f 21 5c bc 0f af c8 bd b1 01 c4 bc
       0.12271938 -0.0134357205 -0.09799015 -0.023926588
000070 8e 03 15 3c 88 e7 ee bc 14 d9 e7 bd 39 82 44 3f
       0.009095086 -0.029163137 -0.11320701 0.76761204
000080 78 8b b8 3e fa c6 b8 bd 7a 98 36 3c 69 43 ca 3d
       0.36043906 -0.09022327 0.011144752 0.09876139
000090 48 85 7c bd 95 65 09 3c f9 6e 6b 3c b9 1b 47 3d
       -0.061650544 0.008386035 0.01436972 0.048610423
0000a0 7c 1a a4 3a c1 1c 6a bd f4 93 53 3d 24 34 ef 3a
       0.00125201 -0.057156328 0.05165477 0.0018249792
0000b0 3d 37 a3 bd fb eb eb bd d1 16 22 3f 6c a3 1b bf
       -0.0796952 -0.11519619 0.63316065 -0.60796237

conv1.bias f4 [16]
000000 a5 3c 80 bf 25 58 98 be a8 90 bc 3d 99 14 04 3f
       -1.0018507 -0.2975475 0.092072785 0.5159393
000010 40 f7 a9 3e a5 4d 2a 3f db 67 bf 3d 8d cb 46 be
       0.3319645 0.66524726 0.09345981 -0.19413586
000020 61 52 b2 3d f1 45 3a 3f f8 ed 10 bf be 70 2f bf
       0.08707119 0.7276297 -0.5661311 -0.68531406
000030 ca 44 21 3f c7 1e 26 3e 26 8e 07 3f 5a 92 bd bf
       0.6299559 0.16222678 0.52951276 -1.4810288

conv2.weight f4 [32, 16, 1]
000000 a2 55 15 3c e9 d6 a6 bb 5f 49 c3 bc f8 d7 48 bc
       0.009114655 -0.0050915373 -0.023838697 -0.012258522
000010 c8 d5 54 3d 66 5a 31 bd 96 d8 36 bd 96 b2 be 3b
       0.05196169 -0.0432991 -0.044640146 0.005819629
000020 c6 25 94 bd fc a4 57 3d 23 42 9f bb 30 f7 d0 3c
       -0.07233767 0.052647576 -0.004860179 0.025508493
000030 17 c1 19 3d 30 ed 67 bc 3d 1f 4b 3d 6c b5 ca 3b
       0.03753766 -0.014155671 0.049590338 0.006186178
000040 cc 00 69 bc 46 aa a5 bd 90 91 91 3d 74 9f e0 bd
       -0.014221381 -0.08089118 0.07107842 -0.10967913
000050 22 ea 2e 3d ce ab b7 3c 45 23 95 3c 26 64 1c 3c
       0.042703755 0.02242079 0.018205294 0.009545362
000060 3e 8d 10 3e 92 5d 05 3c b6 93 a1 3c f1 26 86 bc
       0.1411638 0.008139985 0.019723754 -0.01637599
000070 04 29 79 3d 1d 59 26 3d 6f cf 3a 3c 29 7d b9 bc
       0.06083013 0.04061233 0.011401995 -0.022642689
000080 67 5a b7 3c a2 34 7c 3c 6f 3f 82 bd d3 bd c4 3c
       0.022381974 0.015393408 -0.06359755 0.024016296
000090 52 be 85 bc 3f 68 33 bc 18 d4 18 bc b1 4a d7 bc
       -0.016326103 -0.010950147 -0.009327911 -0.026280733
0000a0 99 28 1d 3d be 54 4b bd da fc c8 bc 82 ff 9f 3d
       0.038368795 -0.049641363 -0.024534632 0.07812406
0000b0 44 20 86 3c fa f5 25 bd ff 4c 32 bd 00 a5 0a 3d
       0.016372807 -0.040517785 -0.04353046 0.033848763
0000c0 8e 9d 62 bd 27 17 fc 3d 15 b5 e6 3b 76 a2 05 3e
       -0.055326037 0.123091035 0.0070406296 0.13050255
0000d0 7e 1e 29 bc 57 30 0b 3d 03 e6 d9 bb 90 e0 0c be
       -0.010322211 0.033981647 -0.006649734 -0.13757539
0000e0 38 7c 69 3d b9 62 38 3e 7d d8 d8 3e 7b 6b d4 3d
       0.05700323 0.1800641 0.42352667 0.10372063
0000f0 bc 31 d6 bc 2f f1 36 3d 2c 6e 45 be 81 3d ff 3d
       -0.026146762 0.044663604 -0.19280308 0.12462903
000100 ab d6 3d bd 38 f7 94 bc 22 13 7f bc b1 48 2d 3c
       -0.0463473 -0.01818429 -0.015568526 0.010576413
000110 80 4b 14 3c 0e 54 29 bd fc c7 be bd fa 43 13 3c
       0.009051204 -0.041339926 -0.09315488 0.008988375
000120 c4 de c7 bd 30 67 ad bc 06 66 d8 bb cf 21 08 3d
       -0.09759286 -0.021167368 -0.006603959 0.033235367
000130 48 35 a9 3a 97 fa 3b bc b0 49 e8 3c 72 8f 0d 3c
       0.0012909556 -0.0114733195 0.02835545 0.008640157
000140 a8 75 91 3d 8f 9d b9 3c 34 68 77 3d d2 8a 47 3d
       0.07102519 0.022658138 0.06040211 0.048716374
000150 5c f2 95 3d 0a 33 a1 bc 18 20 c8 bc 9c 99 72 bc
       0.07321617 -0.019677658 -0.024429366 -0.014807131
000160 4b 86 6d 3d ae 35 f2 bc a5 bf b4 3a d9 cd b0 3b
       0.0579894 -0.029566612 0.0013790025 0.0053956327
000170 eb 8e 3b bd 5a 0b f9 3c 15 ae ba 3d d2 a6 b1 bc
       -0.045790594 0.03040092 0.09115235 -0.021685991
000180 07 cb 8a 3d fe 99 ba 3a 7a da b3 3c 76 c9 4b 3a
       0.06777006 0.0014236567 0.021954764 0.00077738555
000190 96 02 93 3b c4 d2 12 39 43 3e c7 bb 62 33 be bc
       0.0044863923 0.00014002161 -0.00608042 -0.02321786
0001a0 b8 79 37 b9 91 e4 6b bd 0d d9 6e bc 7b ea 9e 3c
       -0.00017497584 -0.057591025 -0.014578116 0.019398918
0001b0 82 57 47 bc 2b b9 19 bc 39 0f af bd 50 4e 18 3d
       -0.01216686 -0.009382526 -0.08547825 0.03718406
0001c0 4a 53 ff bc 24 50 4f b9 23 fd fe 3c df c4 78 bc
       -0.031167645 -0.00019770913 0.031126564 -0.0151836565
0001d0 8f 46 a9 3d 8b 97 0c 3c be 77 ce 3c bf f0 5e bc
       0.08265411 0.0085810525 0.025203582 -0.013607203
0001e0 3c b8 bd ba cf 6f d0 3c 62 72 be 3c 3b 39 9e bd
       -0.0014474462 0.02544394 0.023247901 -0.077257596
0001f0 ee 87 1d 3d 11 0b bf 3d f1 93 28 3c 08 dd 15 bd
       0.03845971 0.093282826 0.010289178 -0.036587745
000200 f0 d0 27 3d 78 f9 26 bc 88 64 84 3d ba 71 9b bc
       0.040970743 -0.010191314 0.06464487 -0.018975127
000210 5a 34 70 3c 9f a9 84 bc 78 e7 0a bc 64 a0 0c bc
       0.014660919 -0.016194163 -0.008478038 -0.008583162
000220 ba 2b 83 bb 31 4a 1a 3b 19 e2 59 3c f9 5d 77 bd
       -0.0040030153 0.0023542757 0.013298535 -0.060392354
000230 72 fb 3e bd 48 23 36 3d fd 9b 0f 3d 4d d8 a3 bc
       -0.046626516 0.04446724 0.03506087 -0.020000601
000240 ef 08 81 3b 23 62 af bc 6c 73 39 bd bc 04 8d bb
       0.0039378325 -0.0214091 -0.04527609 -0.004303543
000250 9b 39 de 3d af 1e 28 bd 83 e4 72 bd bf 77 c3 bc
       0.10850831 -0.041044887 -0.059299957 -0.02386081
000260 bf 4d 8c bd c5 a4 24 3c a3 56 81 bc 79 17 6c 3d
       -0.068507664 0.01004905 -0.015788382 0.057639573
000270 c7 3e 3e bd d2 36 37 bb 5e 5d fb bc 5b 97 83 3c
       -0.046446588 -0.002795626 -0.03068417 0.016063383
000280 4f ed 60 3d 06 1d 99 bd 61 9f 9d 3d d5 1e d4 bd
       0.054913815 -0.07476239 0.07696415 -0.10357443
000290 f6 59 b7 bd 3c 15 c0 3c 6c 57 20 3e 19 3f ba bc
       -0.089527056 0.023447625 0.15658349 -0.022735165
0002a0 81 97 d5 3d 5d fa 8b 3c fd f1 1e 3f c8 8e 47 3e
       0.10429288 0.017087156 0.62087995 0.1948806
0002b0 44 a6 1f bd 8d 63 fd bd 40 2e 0c 3d e4 d2 9b 3e
       -0.038976923 -0.123725034 0.034223795 0.30434334
0002c0 65 80 c0 3c e0 ac 96 3d cc 1b aa bd d8 b5 27 3d
       0.023498723 0.07357192 -0.08306083 0.040944904
0002d0 76 a7 ad 3b 40 b9 ba bd b9 d3 3a 3d 98 bc a4 3c
       0.005299504 -0.09117365 0.04561207 0.02010946
0002e0 05 da 5e bc c7 15 a8 bd 96 a5 35 3f ea d2 49 be
       -0.013601785 -0.08207279 0.7095579 -0.19709364
0002f0 64 22 a1 3d 30 fe a3 3c cf 20 85 bd b8 01 97 3e
       0.078678876 0.020018667 -0.06500398 0.294935
000300 95 98 47 3d 6a 60 1f bb 05 d5 d3 bc 0b 13 52 bc
       0.048729498 -0.0024318942 -0.025858412 -0.012821923
000310 b0 a8 22 3d f8 2e 9f bc 64 f7 9a bd a3 4f 6b 3b
       0.039711654 -0.019431576 -0.07566717 0.0035905621
000320 c0 0b c3 bd 06 fa 9f bd 64 d1 09 bc aa e7 49 3d
       -0.095237255 -0.0781136 -0.008411739 0.049293198
000330 d1 e7 69 bd 9c 3e 35 bd ab 9e 7e 3c f1 ea 5e 3c
       -0.057105843 -0.044249162 0.015540759 0.013605819
000340 b3 50 83 bc 50 d3 5e 3b c5 ce 28 ba 11 42 f2 ba
       -0.016029691 0.0034000464 -0.00064395025 -0.0018482824
000350 5b 9e 54 3d a9 03 99 bd b6 28 06 bd e8 20 b8 ba
       0.051908832 -0.07471401 -0.03275367 -0.0014047893
000360 0a 01 be bd 07 a1 b7 3d e7 c3 f6 bb 03 b3 47 3d
       -0.09277542 0.089662604 -0.0075306776 0.048754703
000370 ea 2b de bc 7b 6c be bc f6 b9 cd 3c 41 03 e2 3b
       -0.02712055 -0.023245087 0.025113087 0.0068973606
000380 27 c8 82 3d c0 58 6f bb 68 85 93 3c 09 c2 0c bc
       0.06385832 -0.0036521405 0.018007949 -0.008591183
000390 d5 75 9e 3c 80 2d b8 bd 1f 74 1e bd 7f 0c 87 3a
       0.019343296 -0.089930534 -0.03868496 0.0010303407
0003a0 d4 45 82 bd 4d ba 6b bc 65 90 c2 bc ec 4b c4 3d
       -0.06360975 -0.014387679 -0.023750493 0.095847934
0003b0 3f 1f 03 bd c1 b6 5e bd ae c7 74 3d 89 5c bb 3c
       -0.03201222 -0.054373506 0.059760742 0.022871273
0003c0 c8 39 a3 bd ec ef b6 3b e6 b1 86 3d 4d 1b 9d bc
       -0.07970005 0.0055828 0.065769 -0.019178057
0003d0 e3 51 fe 3c f4 b9 c5 3d 6f 03 04 3d 2f 2c 01 3c
       0.031044906 0.09654608 0.032229837 0.007884069
0003e0 4b 9f 75 3d b3 72 74 3d cf 43 f5 3c 11 34 aa bc
       0.059966367 0.0596797 0.02993956 -0.02077678
0003f0 79 41 1d 3d 6a 00 01 3d 04 04 ea 3c 5b d4 0c bd
       0.038392518 0.031494536 0.028566368 -0.034382205

conv2.bias f4 [32]
000000 22 6c bd 3d 2f a7 fb be 2d fe 12 3f 6d b4 f5 be
       0.0924914 -0.49150988 0.5741909 -0.47989216
000010 2d dc 0f 3e cc 86 1c 3e 43 8d 4f 3e 7a dd 01 bf
       0.14048834 0.15285796 0.20268731 -0.5072857
000020 d5 ca 90 be d3 20 ce 3e 82 42 23 be ec 7d 2a be
       -0.2827975 0.40259418 -0.1594334 -0.16649598
000030 51 51 31 3e 0a 9f 3b 3e 90 df 20 3f c6 7c 42 bf
       0.17316176 0.18322387 0.6284113 -0.7597164
000040 a2 27 11 3f dd e9 21 be f0 67 06 3f cb 30 e6 3d
       0.567011 -0.15811868 0.52502346 0.11239775
000050 91 80 72 3f 3c 29 d6 bd 6e 11 1e 3e 5a 9b 48 be
       0.94727427 -0.104570836 0.15436336 -0.19590512
000060 5a 88 e3 bd e2 3f 29 bf ff b0 3d 3f 00 79 74 3e
       -0.11109991 -0.661131 0.740982 0.23874283
000070 87 9e 44 bd 14 3e 14 3f 4c 4b bc 3e 7f 1d f9 bd
       -0.048002746 0.57907224 0.36776197 -0.12163829

fc.weight f4 [1, 32]
000000 02 48 d4 b9 49 27 db 39 6a 12 3f ba d1 36 91 3e
       -0.0004048944 0.00041800205 -0.00072888157 0.28362134
000010 18 6a d6 b9 01 af d8 39 5a 6b b6 ba 4b 17 a1 3a
       -0.00040896307 0.00041329119 -0.0013917491 0.0012290267
000020 de 8d df 39 c4 51 71 b9 65 ce e2 3e 93 95 00 3f
       0.00042639574 -0.00023014011 0.44298092 0.5022823
000030 36 2e 47 ba 62 b4 f9 b9 f0 21 22 ba e9 aa 20 3a
       -0.00075981335 -0.00047627377 -0.00061848667 0.0006128983
000040 0c a2 90 ba f3 f0 a1 3a 94 71 12 ba 6b 8b 5f 3a
       -0.0011034622 0.0012355134 -0.00055863825 0.000852755
000050 2a 44 5f ba 12 ea c0 ba 3f 41 3f ba 13 10 20 3a
       -0.0008516932 -0.0014718196 -0.0007295794 0.0006105911
000060 2c 7c 2f ba f0 4d 1c 3a 86 e0 a0 ba 3b 69 47 ba
       -0.0006694223 0.00059625413 -0.0012273944 -0.0007606928
000070 69 18 c9 be e9 7b 19 b9 16 4d cd b8 32 79 12 b8
       -0.39276436 -0.00014637377 -9.78952e-05 -3.4921984e-05
