model_list/2001/humidity_summer_2001_v4.pth (torch, 5322 bytes, 5 tensors)

conv1.weight f4 [16, 3, 1]
-0.5307997 0.64488775 0.6736187 1.1672503 -0.06625851 -1.0144691 0.11622575 -0.014203689
-0.11032301 0.43650302 -0.02421272 -0.44525874 -0.9696253 0.118643604 0.69217736 -0.30933106
0.004989122 0.31296298 -0.15883462 0.013171247 0.15362287 -0.27770522 0.008769132 0.28657642
-0.10550127 0.014124696 0.09009151 0.8932144 -0.3190124 -0.06046378 0.50560826 -0.005877691
-0.4988502 0.65000993 -0.013024274 -0.6394782 0.07411306 -0.004602079 -0.032061797 0.091958895
-0.008670549 -0.10500888 -0.040802836 0.0012606962 0.007989334 0.4763159 -0.008301618 -0.49688476
00000000: 7de2 07bf 5d17 253f 4672 2c3f 7568 953f
00000010: 8bb2 87bd 20da 81bf c407 ee3d 97b6 68bc
00000020: 08f1 e1bd 537d df3e c159 c6bc f4f8 e3be
00000030: 5d39 78bf 6bfb f23d 8932 313f a460 9ebe
00000040: ca7b a33b af3c a03e 8ba5 22be 37cc 573c
00000050: 504f 1d3e 612f 8ebe 68ac 0f3c 25ba 923e
00000060: 0d11 d8bd 456b 673c e681 b83d b3a9 643f
00000070: 9855 a3be dea8 77bd 8b6f 013f a599 c0bb
00000080: 4b69 ffbe 0d67 263f c463 55bc d8b4 23bf
00000090: 97c8 973d 09cd 96bb 3b53 03bd f254 bc3d
000000a0: eb0e 0ebc e50e d7bd e020 27bd f23d a53a
000000b0: b2e5 023c addf f33e 8203 08bc ae67 febe

conv1.bias f4 [16]
-1.4443992 0.44861215 0.6240309 1.536605 -1.0340469 -0.16689894 -0.54087275 -0.5554925
-0.42840752 1.1664451 -0.031052755 0.2789721 -0.7911605 0.7372442 0.77452946 0.7760629
00000000: 13e2 b8bf 7eb0 e53e 7dc0 1f3f 79af c43f
00000010: a65b 84bf 8ee7 2abe a376 0abf c234 0ebf
00000020: 3b58 dbbe 134e 953f 5962 febc 6ed5 8e3e
00000030: 7f89 4abf 09bc 3c3f 9047 463f 0fac 463f

conv2.weight f4 [32, 16, 1]
0.0036730063 0.013991626 0.035784412 0.1523208 0.08347544 0.01887512 -0.036566257 -0.014310269
0.018681224 0.034065258 -0.021601189 0.022192692 -0.017289588 -0.022208765 0.03212407 -0.020524118
0.002292125 0.028256543 0.10293601 -0.091370255 -0.023967136 -0.05862691 -0.050400663 -0.060397413
-0.065572515 -0.0062494627 -0.057364672 -0.0045840284 -0.014094304 0.008768843 -0.00735981 -0.035332385
0.0076614255 0.03242855 0.024292814 0.05678984 0.15272479 -0.15407112 -0.011558493 -0.11581623
-0.042828057 0.11794822 0.036293402 0.012414125 0.048017215 0.021798652 0.022169678 0.018298745
-0.9272826 -0.004614021 0.16649263 0.09819379 0.0015753185 0.104759686 0.014980309 0.068581276
-0.10717245 0.009436872 -0.047089785 0.07494086 -0.16953008 0.11866726 -0.062474918 -0.041294187
-0.012230016 0.018385569 0.06776863 -0.037736826 -0.10176037 0.056927793 0.045732006 0.08601076
0.10031252 -0.1511878 -0.048498828 -0.0595579 0.028755713 -0.0049145347 -0.019727184 -0.1267652
0.50352913 0.020088492 0.04883566 -0.04735798 -0.12522185 -0.09641435 -0.012971607 -0.06422722
-0.14137998 -0.027213473 -0.03199409 0.065379746 0.017423851 -0.009070245 -0.059526883 0.012490059
-0.00545798 0.06045605 -0.012205921 -0.10548634 0.04843771 0.021793552 0.06869038 0.055575393
0.011887175 -0.06477605 -0.02234951 -0.023078568 -0.022113025 -0.020615134 0.013899608 -0.03604753
0.0095580835 -0.0488239 0.033592045 0.110952176 -0.04970892 -0.026148709 -0.047953524 -0.039078318
0.030056633 0.11698535 0.028084697 0.028302941 -0.03667541 0.040807545 0.04775386 0.05852994
0.00371117 0.03865435 0.040828906 -0.11165994 0.106664136 0.10275843 -0.009355433 0.07441972
-0.035756793 -0.032415684 -0.02974633 0.056662466 -0.042515606 0.0071589136 0.097166106 -0.04816722
-0.006709194 0.018729275 0.03931609 -0.16916962 0.007845343 -0.017330766 0.03211454 -0.0134763615
0.019404586 -0.13151291 -0.039318826 -0.06525294 0.060197733 0.0013133383 -0.03030219 -0.030493243
-0.011808601 0.07193404 0.005601293 0.0057769357 -0.07761095 0.087883286 0.015824972 0.06544599
0.032914784 -0.10938971 -0.15416281 -0.086909615 0.030981181 -0.04370627 -0.013370232 -0.06507368
0.010402002 0.06951202 0.024548646 0.051873013 0.22044203 0.14625579 -0.08900743 0.1091806
-0.02578944 -0.046683088 -0.06344144 0.04881319 -0.004480493 0.009654459 0.0006151254 -0.06274171
-0.0076471446 0.04336865 -0.0053035626 0.008693147 0.010198105 0.009598124 0.001556802 0.013623347
-0.035750095 0.05186501 0.047767118 0.08294627 0.02652337 0.011238265 -0.041543 -0.012864428
0.0069291713 0.065537915 0.022046374 -0.00900198 0.2126019 0.001632167 -0.011992509 -0.006696138
-0.024742749 0.0050433623 -0.006719255 -0.037170786 -0.010953653 0.028157603 -0.02997869 0.024386454
-0.01805634 -0.004970742 -0.018323312 -0.07530534 -0.21063884 -0.1160115 -0.023250671 -0.10325377
0.0024525956 -0.117392324 0.013442981 -0.015612765 0.014086692 0.051479355 -0.073500976 -0.058978323
0.002641277 -0.05403917 -0.033247326 -0.013368024 -0.13575628 -0.09714744 0.02124482 -0.0721608
0.06740325 0.101123944 0.051086366 0.031535182 -0.048835874 -0.03677618 0.038519796 0.075876646
00000000: d2b6 703b 223d 653c ad92 123d fcf9 1b3e
00000010: 2cf5 aa3d ff9f 9a3c 80c6 15bd 9e75 6abc
00000020: 5e09 993c 0388 0b3d faf4 b0bc 73cd b53c
00000030: e5a2 8dbc 28ef b5bc 8794 033d 3222 a8bc
00000040: 7a37 163b 447a e73c 1dd0 d23d 5420 bbbd
00000050: ba56 c4bc c522 70bd ed70 4ebd 4763 77bd
00000060: e24a 86bd 4bc8 ccbb 38f7 6abd 9e35 96bb
00000070: cceb 66bc 31ab 0f3c 902a f1bb b1b8 10bd
00000080: b20c fb3b cdd3 043d b901 c73c 779c 683d
00000090: e363 1c3e d2c4 1dbe d55f 3dbc 0f31 edbd
000000a0: 796c 2fbd d68e f13d 64a8 143d 9d64 4b3c
000000b0: b3ad 443d 1693 b23c 2f9d b53c 40e7 953c
000000c0: 6462 6dbf 3731 97bb 0b7d 2a3e d319 c93d
000000d0: eb7a ce3a 3f8c d63d f86f 753c 5774 8c3d
000000e0: 3b7d dbbd 1c9d 1a3c 38e1 40bd 987a 993d
000000f0: 4b99 2dbe d207 f33d b3e5 7fbd 1824 29bd
00000100: 6860 48bc 559d 963c 48ca 8a3d ee91 1abd
00000110: be67 d0bd 1e2d 693d 7c51 3b3d 6926 b03d
00000120: a770 cd3d fad0 1abe b5a6 46bd fcf2 73bd
00000130: 1a91 eb3c 1b0a a1bb e79a a1bc bdce 01be
00000140: 49e7 003f 9f90 a43c e707 483d 71fa 41bd
00000150: 283a 00be e374 c5bd dd86 54bc 9089 83bd
00000160: eac5 10be caee debc 3c0c 03bd d1e5 853d
00000170: 77bc 8e3c 5d9b 14bc 76d2 73bd 1ba3 4c3c
00000180: dbd8 b2bb c3a0 773d 58fb 47bc 3909 d8bd
00000190: 9f66 463d 6488 b23c 8bad 8c3d 06a3 633d
000001a0: 6dc2 423c 4ea9 84bd 5216 b7bc 440f bdbc
000001b0: 6026 b5bc 12e1 a8bc 2ebb 633c 93a6 13bd
000001c0: 8299 1c3c 92fb 47bd d097 093d e53a e33d
000001d0: 959b 4bbd d135 d6bc ea6a 44bd 9610 20bd
000001e0: 5439 f63c 0496 ef3d e111 e63c 92db e73c
000001f0: f438 16bd d025 273d 8d99 433d 17bd 6f3d
00000200: 1a37 733b 0654 1e3d 363c 273d f7ad e4bd
00000210: ba72 da3d 0373 d23d 8847 19bc 5e69 983d
00000220: b775 12bd 4fc6 04bd 93ae f3bc e716 683d
00000230: d824 2ebd 5295 ea3b 06ff c63d fe4a 45bd
00000240: ccd8 dbbb 236e 993c e909 213d cd3a 2dbe
00000250: c189 003c 40f9 8dbc 898a 033d f5cb 5cbc
00000260: 5ef6 9e3c 52ab 06be c70c 21bd 55a3 85bd
00000270: e691 763d 5224 ac3a 4c3c f8bc f7cc f9bc
00000280: dd78 41bc 2752 933d 0d8b b73b 734c bd3b
00000290: 7df2 9ebd 27fc b33d 5fa3 813c 8c08 863d
000002a0: a7d1 063d b607 e0bd dbdc 1dbe abfd b1bd
000002b0: 3fcc fd3c 5905 33bd d10e 5bbc 5945 85bd
000002c0: 296d 2a3c 515c 8e3d 3e1a c93c cc78 543d
000002d0: 8ebb 613e 14c4 153e 8749 b6bd 149a df3d
000002e0: 6044 d3bc c436 3fbd 96ed 81bd 57f0 473d
000002f0: 19d1 92bb bc2d 1e3c 5e40 213a ba7e 80bd
00000300: e694 fabb 53a3 313d 82c9 adbb b46d 0e3c
00000310: f415 273c 7341 1d3c 9b0d cc3a 7534 5f3c
00000320: b16e 12bd 6870 543d 74a7 433d bcdf a93d
00000330: 8a47 d93c b320 383c fe28 2abd 52c5 52bc
00000340: 1a0e e33b be38 863d 999a b43c 0a7d 13bc
00000350: 50b4 593e 70ee d53a 3a7c 44bc 476b dbbb
00000360: 4eb1 cabc ca42 a53b 322d dcbb 6540 18bd
00000370: f376 33bc c6aa e63c df95 f5bc 1ac6 c73c
00000380: e4ea 93bc 9be1 a2bb c51a 96bc b039 9abd
00000390: b5b1 57be 7097 edbd 3178 bebc b676 d3bd
000003a0: babb 203b 636b f0bd f33f 5c3c afcc 7fbc
000003b0: decb 663c 04dc 523d ae87 96bd 4193 71bd
000003c0: 4619 2d3b 2d58 5dbd 592e 08bd 8e05 5bbc
000003d0: b203 0bbe 3df5 c6bd 9e09 ae3c 0bc9 93bd
000003e0: b70a 8a3d 121a cf3d f03f 513d 092b 013d
000003f0: 2008 48bd 9fa2 16bd efc6 1d3d 3765 9b3d

conv2.bias f4 [32]
-0.18580474 -0.11501926 -0.42594028 0.30467936 0.66541857 -0.28737447 0.38537863 -0.58287215
0.013078133 0.42754346 0.63068694 -0.26157275 0.2509768 -0.14157197 0.8078406 -0.29196274
0.33433908 0.0043031857 0.4469284 0.20278049 0.37967065 0.41078585 -0.35781395 -0.2637863
-0.48959398 0.4895409 0.034153517 0.5270357 -0.36005002 0.04067529 0.5218131 0.020951433
00000000: 9943 3ebe 388f ebbd d814 dabe effe 9b3e
00000010: df58 2a3f bf22 93be 5950 c53e 1c37 15bf
00000020: aa45 563c fae6 da3e b374 213f ddec 85be
00000030: 0880 803e 3ef8 10be a4ce 4e3f 247c 95be
00000040: 7e2e ab3e bd01 8d3b cdd3 e43e b0a5 4f3e
00000050: 3164 c23e 8652 d23e 6433 b7be ff0e 87be
00000060: 10ac fabe 1ba5 fa3e 8fe4 0b3d d0eb 063f
00000070: 7a58 b8be 229b 263d 8b95 053f 57a2 ab3c

fc.weight f4 [1, 32]
0.0011868083 0.000859815 0.00092946197 -0.6138491 0.00024641678 0.3425429 0.0004523441 -0.0021554572
0.0013341311 0.0027446328 -0.0022075144 0.003951181 -0.0013145764 0.0015500651 0.0019459603 -0.0032134491
0.0009822327 -0.0021749276 -0.0024641855 0.0013871233 -0.37060586 0.00116716 -0.0020736728 0.0031669643
0.44200808 0.0011433203 -0.003894358 0.0020315584 0.0018493645 -0.0019561208 -0.3631135 -0.0018635648
00000000: ae8e 9b3a 3565 613a 23a7 733a 3725 1dbf
00000010: 8031 8139 c861 af3e 9928 ed39 9242 0dbb
00000020: 03de ae3a 4cdf 333b f2ab 10bb e978 813b
00000030: dd4d acba 8e2b cb3a 980f ff3a bb98 52bb
00000040: 43be 803a 3b89 0ebb 2c7e 21bb 22d0 b53a
00000050: 0dc0 bdbe 64fb 983a 75e6 07bb d88c 4f3b
00000060: e24e e23e 77db 953a 7c38 7fbb e523 053b
00000070: 6066 f23a 4332 00bb 03ea b9be dc42 f4ba
