weights/2030/humidity_winter_2030.pth (torch, 5322 bytes, 5 tensors)

conv1.weight f4 [16, 3, 1]
-0.10420945 0.27998754 -0.061065014 0.28945777 0.22681671 -0.34846887 -0.03864122 -0.07873779
0.14620225 -0.41306403 0.25471514 0.09811767 0.45781624 -0.3962012 -0.24059843 0.17810969
-0.06602119 -0.071379386 0.33977196 -0.24503905 -0.15463287 0.23403654 -0.43049237 0.06694474
0.045573853 0.45146143 0.25167155 -0.20923501 0.14310785 0.013089626 0.4031852 0.4960956
0.5508946 -0.23105119 0.3487891 0.3058788 0.16584185 0.34961274 0.31461033 -0.14239667
0.31049177 -0.5419015 0.2617268 0.40056106 -0.1034799 0.03739563 0.48247218 -0.038741563
00000000: c46b d5bd 875a 8f3e 4f1f 7abd cf33 943e
00000010: a442 683e 836a b2be 4246 1ebd 4741 a1bd
00000020: 0bb6 153e 217d d3be 066a 823e ebf1 c83d
00000030: e466 ea3e e2da cabe 6f5f 76be 6362 363e
00000040: 1e36 87bd 5b2f 92bd 97f6 ad3e 84eb 7abe
00000050: 1458 1ebe 46a7 6f3e 7f69 dcbe 531a 893d
00000060: a6ab 3a3d f425 e73e 18db 803e b441 56be
00000070: dd8a 123e df75 563c 4a6e ce3e 3e00 fe3e
00000080: 6e07 0d3f af98 6cbe 7c94 b23e 259c 9c3e
00000090: 72d2 293e 7100 b33e 9b14 a13e 6fd0 11be
000000a0: c7f8 9e3e 0fba 0abf 0e01 863e 5716 cd3e
000000b0: 45ed d3bd 292c 193d 9806 f73e 79af 1ebd

conv1.bias f4 [16]
-0.4240391 -0.19375497 -0.4931124 -0.58972377 -0.3004354 0.55620366 0.31966802 0.61523384
-0.5198984 0.3934293 -0.39704928 0.41455227 0.52268535 -0.52395135 -0.58862954 0.35861164
00000000: a71b d9be b467 46be 3a79 fcbe 23f8 16bf
00000010: abd2 99be 5d63 0e3f 87ab a33e f77f 1d3f
00000020: 1018 05bf 916f c93e 0b4a cbbe 3240 d43e
00000030: b5ce 053f ad21 06bf 6db0 16bf f29b b73e

conv2.weight f4 [32, 16, 1]
0.16433607 0.16538844 0.29787928 -0.1956468 0.10053464 -0.19559596 -0.115169816 0.17598693
-0.10762167 0.01733169 -0.058321185 -0.24878553 -0.11961026 0.018005207 -0.042191617 -0.2810394
0.27895635 0.08393085 0.041498117 0.010770495 -0.19315544 0.13183628 0.057034686 0.000712891
0.17819197 -0.062501885 0.017656175 0.24275161 -0.13426788 0.09736794 -0.123625666 0.21335018
-0.14893457 0.029480182 0.09105974 0.0025438543 0.03645514 0.28419134 0.10002737 0.13158122
0.051046584 0.01400889 -0.09780039 -0.15321274 -0.09801974 -0.30712345 0.21525463 -0.22324556
-0.08976364 -0.08354706 -0.0047636167 -0.19640121 -0.12569942 0.17887178 -0.2817162 0.08707263
0.20652777 0.19969688 -0.149842 0.1434252 0.1649833 -0.037446983 -0.09504638 0.27510583
-0.13658915 -0.114805415 -0.0066392743 0.057462573 0.22271666 -0.19558568 -0.031724174 0.06364205
0.09554816 0.0028994677 -0.16380647 0.04221905 0.08433572 0.04937424 -0.027373647 -0.08571788
0.056615345 -0.08990305 0.11313044 -0.1861541 -0.04766827 0.045583546 0.13648303 0.1827137
0.029782904 0.1012563 -0.121799596 -0.061563354 0.011207412 0.14994556 -0.21981159 -0.15578003
0.21345142 -0.18170153 0.19549632 0.07988418 -0.11680396 -0.06269217 -0.14013912 -0.11953858
0.16224019 -0.11007662 0.24167404 0.07707482 -0.09425493 -0.23292816 0.040443595 -0.17589599
-0.14034986 -0.082951844 -0.18160163 -0.26946092 0.17364517 0.18364683 0.16734095 -0.17629811
0.14675279 -0.06721945 -0.23045054 0.074756384 0.009140931 -0.08716518 -0.070022084 -0.0103403535
0.043266032 0.12322788 -0.0038214768 0.14526294 0.05346126 0.099600494 -0.17435713 0.043967012
-0.08447241 -0.04339284 -0.004776076 -0.030898599 -0.22730769 -0.26043603 -0.012281469 -0.03196658
-0.08676536 -0.2935276 0.015855292 -0.036116846 -0.033016525 -0.057202578 0.055554558 0.100931786
0.17965402 -0.20344983 -0.17903247 0.013113127 -0.21982433 -0.10230951 0.08472688 -0.27565798
-0.12941858 -0.26016188 0.09755273 -0.12984975 0.0705278 0.15313032 -0.08318148 0.23010278
0.049040772 -0.20098189 -0.048239052 0.01599912 -0.028617859 0.24097532 -0.048167024 -0.1350823
0.18357067 0.13501532 0.024987765 -0.21633758 0.245519 -0.17973748 0.0077068056 0.26780352
-0.28197598 -0.046108928 -0.08155651 0.15657276 -0.22037625 -0.048444185 -0.13314982 0.02074159
0.16698432 0.25898567 -0.06996251 0.04279613 -0.19741209 0.1540163 -0.27574 -0.028312694
0.113791384 0.062496454 0.26007965 0.20340511 -0.10865154 -0.011839166 -0.108726695 -0.13041814
0.0033695747 -0.34964567 0.18804446 -0.11759145 -0.008835539 0.02950774 -0.06882383 0.20078038
-0.12041713 -0.14337853 -0.0007913616 -0.19537014 0.030757401 -0.09825663 -0.14178982 0.13047835
0.18146068 -0.101866 0.011190503 0.3121799 -0.12936917 0.025281955 0.026746185 -0.19764529
0.17328444 0.31054887 -0.009532513 0.011905252 0.24447548 -0.11426783 0.010314412 0.23564048
0.0048582093 -0.034373812 0.00614664 0.0902496 -0.16005668 0.112598784 -0.12367451 -0.21959981
0.0063758115 -0.13681461 -0.06398711 -0.14505029 0.15347461 -0.073585264 0.28488395 -0.10712653
00000000: b747 283e 965b 293e a283 983e a257 48be
00000010: 1be5 cd3d 4f4a 48be 27de ebbd eb35 343e
00000020: c068 dcbd 30fb 8d3c 32e2 6ebd a2c1 7ebe
00000030: 39f6 f4bd a87f 933c 1ed1 2cbd 65e4 8fbe
00000040: 5ed3 8e3e f0e3 ab3d eef9 293d bb76 303c
00000050: 8aca 45be 1700 073e 349d 693d 4ee1 3a3a
00000060: f577 363e fd00 80bd afa3 903c e193 783e
00000070: 857d 09be d868 c73d 742f fdbd 7878 5a3e
00000080: 4e82 18be 6c80 f13c 877d ba3d cbb6 263b
00000090: fc51 153d 8781 913e 26db cc3d 3abd 063e
000000a0: 3916 513d 8b85 653c 924b c8bd cde3 1cbe
000000b0: 93be c8bd 493f 9dbe b66b 5c3e 7c9a 64be
000000c0: 00d6 b7bd b91a abbd 1d18 9cbb 661d 49be
000000d0: 59b7 00be 2a2a 373e 1b3d 90be 2353 b23d
000000e0: 047c 533e 577d 4c3e 2e70 19be 0ede 123e
000000f0: 62f1 283e 0262 19bd ada7 c2bd acda 8c3e
00000100: 07de 0bbe 1a1f ebbd 458e d9bb e05d 6b3d
00000110: d60f 643e 9d47 48be 35f1 01bd c356 823d
00000120: c1ae c33d ff04 3e3b e2bc 27be e2ed 2c3d
00000130: 35b8 ac3d a53c 4a3d b33e e0bc db8c afbd
00000140: 7ee5 673d 171f b8bd efb0 e73d 2e9f 3ebe
00000150: ce3f 43bd d0b5 3a3d 35c2 0b3e 4d19 3b3e
00000160: 47fb f33c 775f cf3d 1172 f9bd db29 7cbd
00000170: 4b9f 373c 548b 193e 4a16 61be cd84 1fbe
00000180: 0293 5a3e f70f 3abe 3030 483e 519a a33d
00000190: ea36 efbd c164 80bd a180 0fbe a5d0 f4bd
000001a0: 4b22 263e da6f e1bd 6679 773e 67d9 9d3d
000001b0: bb08 c1bd b884 6ebe 2fa8 253d 141e 34be
000001c0: e0b7 0fbe a8e2 a9bd c7f5 39be c8f6 89be
000001d0: 0ad0 313e ea0d 3c3e 6d5b 2b3e 7e87 34be
000001e0: 5d46 163e 5aaa 89bd 3afb 6bbe e019 993d
000001f0: d8c3 153c a883 b2bd bd67 8fbd 966a 29bc
00000200: b937 313d e65e fc3d be71 7abb cfbf 143e
00000210: 32fa 5a3d 58fb cb3d ad8a 32be c116 343d
00000220: dfff acbd b1bc 31bd a180 9cbb 0f1f fdbc
00000230: 59c3 68be df57 85be 3738 49bc 63ef 02bd
00000240: 09b2 b1bd 4049 96be f5e2 813c 42ef 13bd
00000250: 563c 07bd 404d 6abd 2d8d 633d 53b5 ce3d
00000260: 39f7 373e 2755 50be 4a54 37be 71d8 563c
00000270: a119 61be a687 d1bd 4985 ad3d 0b23 8dbe
00000280: 4e86 04be f033 85be bac9 c73d 55f7 04be
00000290: e170 903d 32ce 1c3e 0d5b aabd 10a0 6b3e
000002a0: fade 483d 32ce 4dbe 5096 45bd 9610 833c
000002b0: 0070 eabc 3cc2 763e c94a 45bd 0453 0abe
000002c0: f3f9 3b3e 7541 0a3e 24b3 cc3c 9987 5dbe
000002d0: 5569 7b3e 1a0d 38be 5f89 fc3b 8b1d 893e
000002e0: 285f 90be b7dc 3cbd 1907 a7bd 9c54 203e
000002f0: 50aa 61be 696d 46bd 6d58 08be 44ea a93c
00000300: f0fd 2a3e c599 843e 8148 8fbd ff4a 2f3d
00000310: 6526 4abe 73b6 1d3e cb2d 8dbe 06f0 e7bc
00000320: 750b e93d 48fc 7f3d 2929 853e 6e49 503e
00000330: b384 debd 10f9 41bc 1aac debd 558c 05be
00000340: 15d4 5c3b c204 b3be ba8e 403e c9d3 f0bd
00000350: f0c2 10bc 37ba f13c 82f3 8cbd 5f99 4d3e
00000360: 429d f6bd d2d1 12be 6173 4fba 1c0f 48be
00000370: f2f6 fb3c c63a c9bd 5a31 11be 1e9c 053e
00000380: d4d0 393e 1f9f d0bd 5f58 373c 0bd6 9f3e
00000390: 5a79 04be 1a1c cf3c d11a db3c 8763 4abe
000003a0: 7a71 313e 4300 9f3e 422e 1cbc 3f0e 433c
000003b0: c857 7a3e 4105 eabd c8fd 283c bd4b 713e
000003c0: 9d31 9f3b 8ecb 0cbd c169 c93b c8d4 b83d
000003d0: e6e5 23be 319a e63d 1049 fdbd c6de 60be
000003e0: 2fec d03b 2119 0cbe ad0b 83bd 1088 14be
000003f0: 7328 1d3e dfb3 96bd 4fdc 913e 2765 dbbd

conv2.bias f4 [32]
0.082148544 0.22646837 -0.026247418 -0.12208407 0.2117257 -0.15215327 0.26813918 -0.15261355
-0.015518101 0.061702244 -0.015521154 0.0831755 0.033624794 -0.027039517 -0.1978329 -0.17159364
-0.30211323 -0.21326038 0.04984686 0.051348206 0.252411 0.03567852 0.119352825 0.23817275
-0.12090337 0.012805807 -0.3090165 0.083244324 -0.14402789 0.15966906 -0.077871 -0.12091883
00000000: 7f3d a83d 53e7 673e d304 d7bc 3707 fabd
00000010: 9fce 583e 11ce 1bbe 8a49 893e ba46 1cbe
00000020: a23f 7ebc 7ebb 7c3d 704c 7ebc eb57 aa3d
00000030: 27ba 093d fa81 ddbc b594 4abe 3eb6 2fbe
00000040: 96ae 9abe ee60 5abe 392c 4c3d 7f52 523d
00000050: 043c 813e a423 123d 416f f43d 8fe3 733e
00000060: 309c f7bd 73cf 513c 6937 9ebe 007c aa3d
00000070: 0c7c 13be 4980 233e d57a 9fbd 4ba4 f7bd

fc.weight f4 [1, 32]
-0.08255307 0.10656567 -0.13014822 0.12248573 -0.1820836 -0.08638647 0.06114155 -0.17060167
-0.14597158 -0.07768153 -0.12218285 -0.052766103 0.06529704 -0.11435793 0.06301939 0.12680258
-0.089616224 -0.063530795 0.15735468 -0.11533261 0.13819787 0.102727294 -0.08090751 0.0957208
0.06686923 -0.16580679 -0.09925555 -0.08783022 -0.103389025 -0.1098342 0.10272994 0.09950319
00000000: 9511 a9bd 1a3f da3d 9345 05be ccd9 fa3d
00000010: 2074 3abe 64eb b0bd 906f 7a3d 34b2 2ebe
00000020: 9379 15be 7e17 9fbd 013b fabd 4521 58bd
00000030: 74ba 853d 7e34 eabd 4f10 813d 89d8 013e
00000040: b688 b7bd 6f1c 82bd 9621 213e 8133 ecbd
00000050: be83 0d3e b062 d23d d6b2 a5bd 4409 c43d
00000060: bcf2 883d 41c9 29be 7e46 cbbd 55e0 b3bd
00000070: a0bd d3bd c1f0 e0bd 1364 d23d 54c8 cb3d
