weights/2030/humidity_summer_2030.pth (torch, 5322 bytes, 5 tensors)

conv1.weight f4 [16, 3, 1]
00000000: 5cf1 303e 2775 c1be 035a fa3e 96ef 34be
00000010: 3a1e 3a3e 4a38 4bbe 1618 c73e 3a80 5e3e
00000020: 9d67 a13d 8445 ab3d a674 233d b51d 20be
00000030: e8f8 04bf 199a a7be 5261 813e 12eb b0be
00000040: 3639 ee3e 0d9e 26be c68f c83d 77b1 6b3e
00000050: 6a51 023f 2608 7f3e c2c1 d6be 740d b63e
00000060: 275b e43e dc4f d73d d02d efbe dae8 5c3e
00000070: 1ca9 aabe 6be8 a5be 6531 9c3d b672 a7bd
00000080: 39b9 cd3d 41a3 05be 4cf3 66be 14db d0be
00000090: 5303 3fbd 74aa df3e d005 813e afba 91be
000000a0: 8dcb bdbb 0166 b53e 5bc8 a43e 4eee bfbe
000000b0: a479 d13e 4586 973e b4e8 c43e 42df b4bd
0.17279571 -0.37784693 0.48896798 -0.1766952 0.18175593 -0.19845691 0.38885564 0.21728602
0.07881091 0.083628684 0.039906166 -0.15636332 -0.519423 -0.32734755 0.25269562 -0.34554344
0.46528023 -0.16271229 0.097930476 0.23016916 0.5090548 0.24905452 -0.419447 0.3555714
0.44600794 0.10513279 -0.4671464 0.21573201 -0.33332145 -0.32403883 0.07626609 -0.08176176
0.10045094 -0.13050558 -0.22553748 -0.40792143 -0.04663403 0.43684733 0.25199747 -0.2846274
-0.0057920874 0.35429385 0.3218411 -0.374865 0.40913117 0.29594627 0.38458788 -0.088316455

conv1.bias f4 [16]
00000000: aaaa 8c3d 3cfe ff3e 1650 c33e 2190 78be
00000010: f640 ed3e c97b d03d d4c9 5ebd 7378 babe
00000020: dc39 52be ac05 c13e fd7b cfbe ce88 b73e
00000030: 4a0c f9bb 059f 30bd d366 433e 7a83 0b3f
0.06868489 0.49998653 0.38147038 -0.24273731 0.46338624 0.1017986 -0.054391697 -0.3642002
-0.20529884 0.3769964 -0.40524283 0.3584656 -0.007600342 -0.043120403 0.19082193 0.5449749

conv2.weight f4 [32, 16, 1]
00000000: 1a9b b33d 0533 8d3e 2451 d73d f1ee da3d
00000010: 1f40 393c 6507 223d 5c7c 673e ad3a a5bd
00000020: 515b 5abe 9ce5 66bc 4898 fabd a795 15be
00000030: b30a 7b3e f36e 92bd 4dbb e63d f80d 653e
00000040: f854 933e c205 503e a6b7 f7bd ae45 1f3e
00000050: c216 9b3d dfa0 b13d 40ad be3d 3f53 97bd
00000060: 6cf2 46be b055 ad3b 14d7 343b 9bc3 283e
00000070: 5a2e 6b3b c960 e63d ca16 30bd 2b29 e2bd
00000080: 9ce6 72be 5219 053e ef36 123e 4d7f 5a3e
00000090: c79b 54be c479 b13d 3135 bc3d b01c cbbd
000000a0: 91a0 803e 11cb fb3d c24a 67be ce08 78be
000000b0: c61a 383d b6bc 3b3e 13e9 2c3e 908b 483e
000000c0: fc54 8dbd ec64 c83d 97ca 52be 2aab 9d3d
000000d0: e008 8b3c 1b76 033e 9729 6bbd 3ea6 e6bc
000000e0: cd19 173e 788f 60be ed2b d1bd 701f 743e
000000f0: 0012 0fbc bd7f 45be 6d64 d2bd 4440 12bd
00000100: 65f1 b73e a81b 67bd e07c 25bd 2930 29be
00000110: 3a1d b03e d0ab 093e b927 85be 0312 ce3d
00000120: 02ec a0bd c877 89bd 211e 8aba 0548 b6bc
00000130: 374c 4fbe f4aa dd3d 6258 40bd 44db 39be
00000140: ed47 93be 260f 30be 9a6a 933e 191d 77be
00000150: 59d8 73bc 56a9 0dbe 3990 b13d 50be 27be
00000160: 3a84 b23e 5899 cfbc 1247 5bbe ae6c 24be
00000170: 465a 22be 3c84 b73c 5c5b 9fbe 0585 743e
00000180: f152 16be ab94 f73d ce2e a0be 8c69 1cbe
00000190: 35ea 8cbd dfab d13d a7db 84b9 7e11 ca3e
000001a0: 23bf 46be d4d5 8cbd db6f 5cbe 775a a2bd
000001b0: 0368 053d 4202 d53d 043a fbbd 9223 88be
000001c0: a4d3 ad3d afc0 18be f659 2d3e 110f 05be
000001d0: ed7a 383e 70d9 843e 29fe 613e bfdd 83be
000001e0: 4562 ba3d 10b0 b1bd f1c0 6cbe fcf1 4d3e
000001f0: 9084 613e 68c6 34bd 0ce5 4a3d f73d 263e
00000200: 99f1 3fbe 2b6b 2abe 97b2 0f3e 5d2c 273e
00000210: 0617 0b3e 4b4f 863e a77c a33d 774b 00bd
00000220: 80cd d7ba ac7a 22be 1a77 123e 5a8a 293d
00000230: 002f 3f3a c821 b6bc 14d3 2d3e a778 073e
00000240: 7364 83be 7dca 9b39 5ece a73e ea16 d13d
00000250: fa74 44be a485 8a3e 2090 88bd 9599 8bbe
00000260: e441 c33e 9623 93bc a6e3 23be 12a1 053e
00000270: 9f72 d53d a144 dcbd 73f8 e1bd cefd 5e3e
00000280: 3b33 a53c fed4 073d a021 913e 8d38 03be
00000290: 544d de3d a1c0 ce3d fcb5 55be 07b5 c43c
000002a0: 217e 503e 3ab6 58be 441b 4e3e 4cc1 12be
000002b0: 3cba b6bd f079 223e 3b0e 8abd a7b3 933e
000002c0: a4f2 e1bd 26f1 2c3c 44db 85be e265 35be
000002d0: 96bb 313d daaa 00be 445f 64be f239 37bd
000002e0: 0b7d 063e c9a5 3dbe 95e2 91bd 7a12 c93d
000002f0: 0aeb aebd 7357 e83c 4441 903e be89 4cba
00000300: cd44 5bbe 1464 72be 2c73 e7bd a538 eb3c
00000310: 7bc9 f4bd 421b 8e3c a169 27bd f207 37bc
00000320: e076 5a3c 977d 89be 2228 ed3c eb9a 88be
00000330: 5834 34be ee22 463d 6e73 80be 29ea 783e
00000340: ca0e c43d fcdd fe3d 995f eb3d 87a8 40bc
00000350: ef40 9a3b c1e2 563e 8a8a d63d d937 31be
00000360: d931 61bc 4a3e a0be 87ac ff3d fc1a 1abe
00000370: 3037 c4bd a20c 48be c2cc 04bd 9d86 11be
00000380: 4fed a3be ba1b ea3d e924 7e3e 0c02 50be
00000390: c8dd a1be faa9 943d 9cc0 423c 8e59 17be
000003a0: f6ca 963d 46b6 8dbe 7176 9bbd 0d5f 423e
000003b0: 38bf fa3d 4262 533e 9323 51be 3fc2 f6bd
000003c0: 25ec d2bd e9c9 493e 7a81 02be 8cd2 c93d
000003d0: 80b8 efbd 8d43 383e e4f5 903e 00c7 adbe
000003e0: 9451 1f3d 7c9f 103b 4a09 463e 4c12 473e
000003f0: 0bea f23d 75e1 7ebe 68ca 7a3c 0522 583d
0.08769818 0.27577987 0.10513523 0.10690106 0.011306792 0.039557833 0.22606033 -0.08067832
-0.21323897 -0.014092829 -0.122360766 -0.14607869 0.245158 -0.07150068 0.112661935 0.2236861
0.28775764 0.20314696 -0.12095575 0.15553924 0.075727 0.08673262 0.093103886 -0.07388925
-0.19428414 0.0052897558 0.0027594017 0.16480868 0.0035885782 0.11248929 -0.042990483 -0.110430084
-0.23720783 0.1299794 0.14278768 0.21337624 -0.2076255 0.08665803 0.09189833 -0.09917581
0.25122502 0.12294591 -0.22587112 -0.24222109 0.04494741 0.18333706 0.16885786 0.19584489
-0.06900975 0.09784874 -0.20585094 0.076986626 0.016972005 0.12838022 -0.05741271 -0.028155442
0.14755936 -0.21929729 -0.10213456 0.23840117 -0.008732319 -0.1928701 -0.10273061 -0.03570582
0.35926357 -0.05642286 -0.040402293 -0.16522278 0.34397298 0.13444448 -0.26006868 0.10062029
-0.07857515 -0.067122996 -0.0010537544 -0.022251138 -0.20243917 0.10823622 -0.04695929 -0.1815005
-0.28765813 -0.17193279 0.28792268 -0.24132194 -0.014883124 -0.13834128 0.086700864 -0.16381192
0.34866506 -0.025341675 -0.2141383 -0.16057083 -0.15854749 0.022401921 -0.3112439 0.23878868
-0.14680077 0.12088903 -0.3128571 -0.15274638 -0.06880609 0.1023786 -0.00025340656 0.3946647
-0.1940885 -0.06876722 -0.21527044 -0.07927411 0.032569896 0.10400821 -0.12266925 -0.26589638
0.08487633 -0.14917253 0.16928849 -0.12994029 0.18015642 0.25947142 0.2206961 -0.25755116
0.09100775 -0.086761594 -0.23120476 0.20111841 0.22023225 -0.044134527 0.049534842 0.16234575
-0.18744506 -0.16642444 0.1403297 0.16325517 0.13583001 0.2623237 0.0798276 -0.03132197
-0.0016464442 -0.15867108 0.14303246 0.041391708 0.00072930753 -0.022232905 0.16975051 0.13229619
-0.25662574 0.0002971477 0.32774633 0.10209449 -0.19185248 0.27055085 -0.06668115 -0.2726561
0.38136208 -0.017961305 -0.1600481 0.13049725 0.10422253 -0.107552774 -0.11033716 0.21776506
0.02016603 0.03316211 0.28345966 -0.12814541 0.10854593 0.10095335 -0.20870203 0.024012102
0.20360614 -0.21163264 0.20127589 -0.1433155 -0.0892224 0.15866828 -0.067409955 0.28848
-0.11032608 0.010555541 -0.2614385 -0.17714646 0.043391787 -0.12565175 -0.22301966 -0.044732995
0.13133638 -0.18520273 -0.07123295 0.09817977 -0.08540924 0.028362012 0.28174794 -0.00078025076
-0.21412964 -0.2367099 -0.11301264 0.028713534 -0.11952492 0.017346982 -0.04087222 -0.011171328
0.013334006 -0.2685363 0.0289498 -0.26680693 -0.17598093 0.048373155 -0.25088066 0.24308075
0.09573133 0.12444684 0.11492843 -0.01175893 0.0047074477 0.20984937 0.10475643 -0.1730646
-0.013744795 -0.31297523 0.12484079 -0.15049356 -0.09580839 -0.19536069 -0.032421835 -0.14211507
-0.3201699 0.1143107 0.24818768 -0.20313281 -0.31614518 0.07258983 0.011886742 -0.14780256
0.073629305 -0.27678126 -0.0759095 0.18981571 0.12243503 0.20642951 -0.20423727 -0.12048768
-0.10298947 0.19705929 -0.12744704 0.09854612 -0.117051125 0.17994519 0.283126 -0.33940887
0.03889616 0.0022067716 0.19339481 0.19440573 0.118610464 -0.24890693 0.0153070465 0.05276682

conv2.bias f4 [32]
00000000: c64d 873c 6fc7 12be 00bd 9dbd e8b3 69be
00000010: fa13 35be 1783 6d3e eada 043e 628e 833e
00000020: 14c3 353e c38c 9a3d 95c0 503e 324a 11be
00000030: a52e 1a3e 6ca6 c63d fba5 913e 1a68 7a3e
00000040: 1a0b d93d 08f2 bd3d b115 8abe 7d84 2f3e
00000050: e7d8 87bb e6c4 a4bd 99dd 453e 99c5 a83e
00000060: 5ef1 45be 402e 62be 8ef1 b4bc f287 eebd
00000070: 5436 d53d b17b 793d 55e3 9dbe f5d9 55bc
0.016516577 -0.1433389 -0.077020645 -0.22822535 -0.17683402 0.23194538 0.12974134 0.25694567
0.17750198 0.075463794 0.20385964 -0.1418846 0.15056856 0.09699711 0.28446946 0.24453774
0.105978206 0.092746794 -0.26969674 0.17140384 -0.00414573 -0.08045368 0.19322814 0.32963255
-0.19330356 -0.22087955 -0.022087839 -0.11647023 0.10410753 0.060908977 -0.30837503 -0.013052453

fc.weight f4 [1, 32]
00000000: 6112 dc3d f215 1ebd 13d6 083e e7d4 53bd
00000010: fb69 febd f08b 163e 2b1f b3bd 66ed da3d
00000020: 7098 693d 1c2d 4b3e 4c42 163e 1e3b babd
00000030: 1b1a a93d fb9f f13d 5e2d 073e e7c3 353d
00000040: a06d a1bd d78d c9bd 1e6c c5bd 0ddc 243e
00000050: 6523 b13d 6e85 83b9 bad2 05bd feb6 023e
00000060: e0d9 bcbd 5219 acbd df3e eabd 7b6a 85ba
00000070: 3971 ed3d 2aa9 5cbd 9ea1 7bbd 876a dbbd
0.10745693 -0.038595147 0.13362913 -0.05171671 -0.12422558 0.1470182 -0.08746179 0.106898114
0.05703014 0.19841427 0.14673728 -0.09093307 0.08256932 0.11798092 0.132009 0.04437628
-0.078822374 -0.09841507 -0.09639762 0.16099568 0.08649329 -0.0002508568 -0.032671668 0.12765118
-0.09221244 -0.08403267 -0.11437773 -0.0010178828 0.11593861 -0.053872265 -0.061433427 -0.10713678
