weights/2005/humidity_summer_2005.pth (torch, 5580 bytes, 5 tensors)

conv1.weight f4 [16, 3, 1]
0	0xbda2add9	-0.07943315
1	0xba228383	-0.00061994063
2	0x3dc7e6b3	0.09760799
3	0x3eb4a83d	0.35284606
4	0xbcc548ed	-0.024082625
5	0xbea4c3ac	-0.32180536
6	0xbe101b00	-0.140728
7	0x3c3abffa	0.01139831
8	0x3de6b1f4	0.112644106
9	0x3e3840f1	0.17993523
10	0xbc2210ba	-0.009891683
11	0xbe309869	-0.1724564
12	0xbdf9b0fd	-0.12191961
13	0xbd80c60c	-0.062877744
14	0x3e3b9b2d	0.18320914
15	0xbce184c7	-0.027529133
16	0x3f173565	0.5906585
17	0xbde9d2fa	-0.11417194
18	0x3ea9d031	0.3316665
19	0xbf307e0f	-0.6894235
20	0xbf045afc	-0.5170133
21	0xbd9874fb	-0.07444187
22	0xbb11e0b4	-0.0022259178
23	0x3da47605	0.08030323
24	0xbe9d915b	-0.3077496
25	0x3cba6b19	0.022756146
26	0x3e96c3c2	0.29446226
27	0xbe051d4b	-0.12999456
28	0x3b900137	0.004394676
29	0x3e158c70	0.14604354
30	0xbe1349a1	-0.14383556
31	0x3bca1f59	0.0061682877
32	0x3e18d1fa	0.1492385
33	0x3e3be01d	0.18347211
34	0xbc164617	-0.009171984
35	0xbe38844e	-0.1801922
36	0xbe515e6e	-0.20446178
37	0xbefd8c27	-0.4952099
38	0x3e8c64d4	0.27420676
39	0x3e877ed0	0.26463938
40	0xbca965d4	-0.020678438
41	0xbe5fcac6	-0.21854696
42	0xbd6cc614	-0.05780609
43	0xba022f02	-0.0004966111
44	0x3d9f5c11	0.07781232
45	0xbebe5ac1	-0.37178615
46	0x3d075382	0.033038624
47	0x3eab5e32	0.33470303

conv1.bias f4 [16]
0	0xbea6037f	-0.32424542
1	0xbd8b7bd4	-0.06810728
2	0x3f03ccfc	0.51484656
3	0xbd4213c5	-0.047382135
4	0x3f96cb1f	1.1780738
5	0xbd0c688f	-0.034279402
6	0x3e9e6f35	0.3094422
7	0x3d82e6d8	0.06391686
8	0xbec7f307	-0.39052603
9	0xbec83c0d	-0.39108315
10	0xbe31c1f5	-0.17359145
11	0x3d84ce6b	0.064846836
12	0x3f613be6	0.8798202
13	0xbf3c9788	-0.7366872
14	0xbefa6849	-0.48907688
15	0xbe7fb02c	-0.24969548

conv2.weight f4 [32, 16, 1]
0	0x3d557d40	0.0521214
1	0xbd29739d	-0.041370023
2	0xbc22a724	-0.009927545
3	0x3cfbf3af	0.030755846
4	0x3d33b16e	0.043870382
5	0x3d39b6f1	0.045340482
6	0x3e2ce8fc	0.16885751
7	0x3bb24ac2	0.0054410407
8	0x3c8f79fe	0.017514225
9	0x3a983c71	0.0011614693
10	0x3c22a732	0.009927558
11	0xbc3d9590	-0.011571303
12	0xbe75a599	-0.23988952
13	0x3cafae80	0.021445513
14	0x3cf4b1a8	0.02986987
15	0x3b8b333f	0.0042480524
16	0x3d7fcd34	0.062451556
17	0x3cb818fd	0.022472853
18	0x3c98c307	0.018647684
19	0x3c29e379	0.010369175
20	0x3dfab80b	0.12242135
21	0x3dd95806	0.10612492
22	0x3e0e3edb	0.13891165
23	0xbb014d34	-0.0019729855
24	0x3d18630d	0.037203837
25	0xbc954c49	-0.018224852
26	0xba29b8d2	-0.0006474379
27	0x3c03b7aa	0.008039394
28	0xbe09b60b	-0.1344835
29	0xbcf4e251	-0.029893072
30	0xbc1762cc	-0.009239864
31	0xbd04c239	-0.032411788
32	0x3d36c4f6	0.04462143
33	0x3c36e71a	0.011163497
34	0x3ce98f53	0.028510725
35	0xbc74d8d8	-0.014944278
36	0x3b5eacec	0.0033977581
37	0x3e537a93	0.20652227
38	0x3e059b59	0.13047542
39	0xbb905765	-0.0044049495
40	0x3d0baa12	0.03409774
41	0x3d466188	0.048432857
42	0x3d1946c1	0.03742099
43	0xbc8b180e	-0.016979244
44	0x3c657be6	0.0140065905
45	0x3cfa1a9b	0.030530265
46	0xbae2a7e2	-0.0017292465
47	0xbd8e90f3	-0.069612406
48	0xbcd53f1e	-0.026031073
49	0xbd7f5a59	-0.06234202
50	0xbc8f539d	-0.017495925
51	0x3d381e91	0.044951025
52	0x3c2a6f4c	0.010402512
53	0xbd4aa8df	-0.049477454
54	0xbda4e88e	-0.08052169
55	0xbd14b5f4	-0.036306337
56	0xbc57cafe	-0.013170956
57	0xbd069c82	-0.0328641
58	0xbcdffd48	-0.027342454
59	0x3cc0dd80	0.02354312
60	0x3db99377	0.0906133
61	0x3c8166fc	0.015796177
62	0x3cff2204	0.03114415
63	0xbbf97823	-0.0076131984
64	0xbc7ccab1	-0.015429185
65	0x3e78186d	0.24228068
66	0xbdc4804d	-0.09594784
67	0xbc677f7b	-0.014129515
68	0x3d96f211	0.07370389
69	0x3ed6d243	0.41957292
70	0xbf0760a7	-0.52881855
71	0x3db483e0	0.08814216
72	0xbe03e0ba	-0.12878695
73	0x3e173fc1	0.14770414
74	0x3e45ce35	0.19316943
75	0xbe5618a4	-0.20907837
76	0xbe8a2a60	-0.26985455
77	0xbd8af2ee	-0.067846164
78	0xbdda2ddc	-0.10653278
79	0x3cfcc19c	0.030854039
80	0x3e1fbb4e	0.15598795
81	0xbd3297b2	-0.0436017
82	0x3e40cf9e	0.188292
83	0x3c993770	0.018703192
84	0x3cae3218	0.021264121
85	0x3ecf455a	0.404826
86	0xbf1b90cb	-0.6076781
87	0x3dc283ab	0.0949777
88	0xbe207d9c	-0.15672916
89	0xbceba437	-0.028764827
90	0xbdf0a946	-0.11751036
91	0x3e157326	0.14594707
92	0xbee74dd2	-0.4517656
93	0xbdf200ff	-0.11816596
94	0xbe0d474e	-0.13796732
95	0xbd877305	-0.06613735
96	0x3ce09de7	0.027419044
97	0xbc640e26	-0.013919389
98	0x3d046441	0.032322172
99	0x3b8bbd9b	0.004264546
100	0x3d061e17	0.03274354
101	0xbe253300	-0.16132736
102	0xbd43ebc6	-0.047832273
103	0x3d291f62	0.041289695
104	0xb98d43ac	-0.00026944035
105	0xbd987983	-0.074450515
106	0xbd65f8a4	-0.056145325
107	0x3cee1000	0.029060364
108	0xbdd44f03	-0.10366633
109	0x3d1bc8bd	0.038033236
110	0x3d61872d	0.055060554
111	0x3d140e3b	0.036146384
112	0x3bff6275	0.0077937194
113	0xbb35b4bc	-0.0027726134
114	0x3c8044ad	0.015657747
115	0xbd07e371	-0.03317589
116	0xbc95e24e	-0.018296387
117	0x3df2201f	0.11822533
118	0x3d888608	0.066661894
119	0xbca14ead	-0.019690836
120	0x3d5923ed	0.053012777
121	0xbcfe08d0	-0.031010062
122	0x3cbcf4c4	0.023065932
123	0xbbdf89ca	-0.0068218457
124	0x3c46eca4	0.01214138
125	0xbcac335b	-0.021020582
126	0x3c667bcd	0.014067602
127	0xbd5e4b9c	-0.054271325
128	0xbcc2263f	-0.023699878
129	0x3d9f6414	0.0778276
130	0x3d761979	0.060082886
131	0xbb548147	-0.0032425688
132	0xbe09979d	-0.13436742
133	0xbe587476	-0.21138176
134	0xbd393029	-0.045211945
135	0x3dd4f927	0.103990845
136	0xbd517ffb	-0.051147442
137	0xbcb61a25	-0.022229264
138	0xbd483b1b	-0.048884492
139	0x3c9b630a	0.018968124
140	0xbe34b615	-0.17647584
141	0xbd4de955	-0.05027135
142	0xbcf4052a	-0.029787619
143	0xbc1be659	-0.009515368
144	0x3cba644e	0.022752907
145	0x3d2e47c0	0.042548895
146	0x3d123cb7	0.035702433
147	0x3cda9690	0.026683122
148	0xbcd31c71	-0.025770398
149	0x3e1a289c	0.15054554
150	0x3ce49acd	0.027905846
151	0x3c4283e7	0.011872268
152	0xbca1efda	-0.01976769
153	0x3ce491fa	0.027901638
154	0x3d902cdc	0.07039806
155	0xbbcac33e	-0.0061878255
156	0x3e0a2728	0.134915
157	0x3d495843	0.04915644
158	0xbc5abfb9	-0.013351374
159	0x3d9a97da	0.07548495
160	0x3e809bcd	0.25118867
161	0x3d31b720	0.043387532
162	0x3dc8e265	0.09808806
163	0xbe91473a	-0.28374654
164	0x3e8e0dbb	0.2774485
165	0xbd9bfef4	-0.07616988
166	0x3e8d7484	0.27627957
167	0x3e4c8558	0.19972742
168	0x3d765228	0.060136944
169	0x3e4def09	0.20110716
170	0x3e1eef8b	0.15521066
171	0x3d80c892	0.06288256
172	0xbe804cc5	-0.2505857
173	0xbe9dd6bf	-0.308279
174	0x3bd3fd5f	0.006469413
175	0xbe581ff2	-0.21105936
176	0xbda2d837	-0.07951396
177	0xbd30d31a	-0.043170072
178	0xbd2f4759	-0.04279265
179	0x3cdeb811	0.02718738
180	0x3cb29a01	0.02180195
181	0xbe2b1fb5	-0.16711314
182	0xbd46813d	-0.048463095
183	0xbd1f3f64	-0.038878813
184	0xbc89f288	-0.01683928
185	0xbd5497cd	-0.05190258
186	0xbd0d31a8	-0.034471184
187	0x3d093601	0.033498768
188	0xbdc58388	-0.09644228
189	0xbcf46976	-0.029835444
190	0x3cb44cb3	0.02200923
191	0x3d405b78	0.04696223
192	0xbd6e709c	-0.05821286
193	0xbd208543	-0.03918959
194	0xbcd20485	-0.02563692
195	0xbbb4ba56	-0.005515377
196	0xbcb20716	-0.021731894
197	0xbe34228a	-0.175913
198	0xbdd76ca7	-0.10518771
199	0xbbf03360	-0.007330343
200	0xbc6318be	-0.0138608795
201	0xbc6dc352	-0.0145119
202	0xbd75fea8	-0.060057312
203	0xbcfeb537	-0.03109227
204	0xbc5a4ebf	-0.013324439
205	0x3ce36090	0.027756006
206	0xbb7e841b	-0.0038836065
207	0x3c9e218a	0.019303102
208	0xbd81dfb2	-0.063414946
209	0x3e2ce765	0.16885145
210	0xbda89982	-0.08232404
211	0xbd5c184a	-0.0537341
212	0xbd9c82c7	-0.07642131
213	0x3e305183	0.17218594
214	0xbe7713b0	-0.24128604
215	0xbe499465	-0.19685514
216	0x3dc13ac1	0.094350345
217	0xbe1d1c1d	-0.15342756
218	0xbd91bf01	-0.07116509
219	0x3e2f3db7	0.17113386
220	0x3cce516c	0.02518531
221	0x3e9857be	0.29754442
222	0x3e59f93a	0.21286479
223	0xbbe7af90	-0.007070489
224	0xbe0138fa	-0.12619391
225	0x38252e5a	3.9382234e-05
226	0x3d1a1395	0.03761633
227	0x3ba40a14	0.005006084
228	0x3e8b922a	0.27259952
229	0x3e766567	0.2406212
230	0x3e2503b5	0.16114695
231	0x3ce89036	0.028389078
232	0xbcf81caf	-0.030287115
233	0x3db0c7b1	0.08631838
234	0xbc62bf43	-0.013839546
235	0xbc2ffd66	-0.010741567
236	0xbc8cb76c	-0.017177306
237	0x3dff99cb	0.124805056
238	0x3dfaf578	0.12253851
239	0x3e1b5c0f	0.15171836
240	0x3b885747	0.004160795
241	0xbcfd893c	-0.030949228
242	0xbd290422	-0.041263707
243	0xbadd52e3	-0.0016885664
244	0xbc8c6b88	-0.017141119
245	0xbceb3359	-0.028711008
246	0xbda3253a	-0.07966085
247	0x3c729ee9	0.014808395
248	0x3d232c27	0.03983703
249	0xb9c3dfc8	-0.00037360028
250	0xbcb85288	-0.022500291
251	0x3d4d1af5	0.050074536
252	0x3df02189	0.11725146
253	0x3cfcbb0e	0.030850913
254	0xbbe70673	-0.0070503294
255	0xbd25424e	-0.040346436

conv2.bias f4 [32]
0	0x3ebe0063	0.3710967
1	0xbcebb88b	-0.02877452
2	0x3e935979	0.287792
3	0x3be6dc1c	0.007045282
4	0x3e204d02	0.15654376
5	0xbd1d7ade	-0.038447253
6	0xbdd31104	-0.1030598
7	0xbd09ce4a	-0.033644
8	0xbebbd1e4	-0.3668357
9	0x3e873b83	0.2641259
10	0xbdb1b322	-0.08676745
11	0x3e14b7dc	0.14523262
12	0xbd842eaf	-0.06454217
13	0xbe197c2f	-0.14988779
14	0x3dbc0d51	0.091822274
15	0x3da1f736	0.0790848
16	0xbe581f22	-0.21105626
17	0x3db5c845	0.08876089
18	0xbb7144cf	-0.0036814695
19	0x3e09cd92	0.13457325
20	0xbe7587d8	-0.23977602
21	0x3d275ce7	0.040860083
22	0x3e91f7b9	0.2850931
23	0xbe0a0bf8	-0.13481128
24	0x3dc119d1	0.09428752
25	0x3e2ad3a4	0.16682297
26	0x3e9d486d	0.3071932
27	0x3d5b9d59	0.053616855
28	0x3e58592d	0.21127768
29	0xbe089416	-0.1333774
30	0x3e891b61	0.267787
31	0xbe9ffb8a	-0.31246597

fc.weight f4 [1, 32]
0	0x3c0aa637	0.00846248
1	0x3bf5e417	0.007503997
2	0x3bbc36ae	0.005743823
3	0xbb9ecf80	-0.0048465133
4	0x3eb4b0dc	0.35291183
5	0x3ec90a4b	0.39265665
6	0xbaeeb3e2	-0.0018211568
7	0x3b616566	0.0034392714
8	0x3b45fa96	0.0030209175
9	0xba203ab7	-0.0006112265
10	0xbdad598a	-0.08464344
11	0xbb1dc5cf	-0.0024074202
12	0xbb9dc511	-0.004814752
13	0x3e0550f8	0.13019168
14	0x3b90d827	0.0044202986
15	0xbba3caff	-0.0049985643
16	0xbbf54841	-0.00748542
17	0xbec12ad5	-0.3772799
18	0x3b93c189	0.004509155
19	0xba6a1551	-0.0008929568
20	0xbc09280f	-0.008371367
21	0xbbdf8575	-0.0068213292
22	0x3c3119a8	0.01080934
23	0xbbdd8909	-0.0067607206
24	0xbc2310d1	-0.00995274
25	0x3bf2e831	0.0074129333
26	0x3bbf09ee	0.005830041
27	0xbb486675	-0.0030578647
28	0x3bd25a7b	0.0064194775
29	0x3bd79652	0.006579199
30	0x3b29b6b7	0.002589626
31	0xbc24f126	-0.01006726
