weights/2005/humidity_winter_2005.pth (torch, 5580 bytes, 5 tensors)

conv1.weight f4 [16, 3, 1]
0	0xbedc3cfe	-0.43015283
1	0xbb180029	-0.0023193455
2	0x3eda5e99	0.42650297
3	0x3e193031	0.1495979
4	0x3c7761c3	0.015098992
5	0xbe158dfc	-0.14604944
6	0xbefc4818	-0.49273753
7	0xbedd6ca6	-0.43246955
8	0x3ece921a	0.40345842
9	0xbe9f457b	-0.31107697
10	0xbb83d533	-0.004023218
11	0x3e9e9dee	0.30979866
12	0x3d204c69	0.03913537
13	0xbf3500e3	-0.7070448
14	0x3f2c8019	0.6738296
15	0x3decfb30	0.11571348
16	0x3c28eead	0.010310811
17	0xbdf9ca52	-0.12196793
18	0xbeef32a3	-0.4671832
19	0xbbb13459	-0.0054078517
20	0x3ee597d4	0.44842398
21	0xbe39b479	-0.18135251
22	0xbc6141b9	-0.01374858
23	0x3e33bb04	0.1755181
24	0x3f01d304	0.5071261
25	0x3af79b1a	0.0018890828
26	0xbf03673a	-0.51329386
27	0x3ea86015	0.32885805
28	0x3bafa74d	0.00536052
29	0xbea73241	-0.32655528
30	0xbec526c6	-0.38506144
31	0xbb59a80e	-0.003321174
32	0x3ec13dc9	0.3774245
33	0x3f04d47a	0.51886714
34	0x3eb34e24	0.35020554
35	0xbd8260af	-0.06366097
36	0x3eed26b3	0.46318588
37	0xba2d9f9b	-0.00066232093
38	0xbef0690c	-0.46955144
39	0xbcf40270	-0.029786319
40	0xbbd2876f	-0.0064248363
41	0x3cac795b	0.02105396
42	0xbdd42d39	-0.10360188
43	0xbdedbee1	-0.11608673
44	0x3e826b09	0.25472286
45	0x3e167423	0.1469274
46	0x3b3d626f	0.0028897782
47	0xbe346743	-0.17617516

conv1.bias f4 [16]
0	0x3e58fe3b	0.21190731
1	0xbf1a47a1	-0.6026555
2	0x3f5a43d6	0.8525976
3	0x3e742915	0.23843797
4	0x3f54e5ac	0.8316295
5	0xbe604582	-0.21901515
6	0x3f2b993b	0.67030686
7	0x3f28914b	0.658467
8	0x3cca5ca3	0.024702376
9	0xbe9caaef	-0.30599162
10	0x3ecc597c	0.3991202
11	0xbf225a2a	-0.6341883
12	0x3d50c77a	0.050971486
13	0x3ef40414	0.4765936
14	0xbd21fa66	-0.03954544
15	0x3f20ac31	0.62762743

conv2.weight f4 [32, 16, 1]
0	0xbca76fc6	-0.02043904
1	0x3c45f80a	0.012083063
2	0xbdc9aba6	-0.098471925
3	0xbd2c02ec	-0.041994974
4	0x3d36887d	0.04456376
5	0x3d32ac20	0.043621182
6	0x3cddc17b	0.027069798
7	0x3d4ec736	0.05048295
8	0xbc2378dc	-0.009977546
9	0xbcb4c9ae	-0.022068825
10	0x3da990ce	0.082795724
11	0xbd3381a9	-0.043824825
12	0xbc4f0453	-0.012635308
13	0x3ca957aa	0.020671684
14	0x3d02baa5	0.03191628
15	0x3dfff392	0.12497629
16	0xbd8ca68c	-0.06867704
17	0xbdcc16f2	-0.09965314
18	0xbc5b177d	-0.013372299
19	0x3c89b495	0.016809741
20	0xbc1c2010	-0.009529129
21	0xbc83bd7b	-0.016081562
22	0x3c91695c	0.017750435
23	0x3dc4f841	0.09617663
24	0x3d975aac	0.07390341
25	0x3c5ea08d	0.013588083
26	0xbda5cbe3	-0.08095529
27	0xbb70b8f3	-0.0036731332
28	0x3d75a560	0.059972167
29	0xbda2355e	-0.07920335
30	0xbab53b93	-0.0013826959
31	0xbd07ff20	-0.03320229
32	0xbe314eec	-0.17315263
33	0xbdf3b3d2	-0.118995324
34	0x3eab50f3	0.33460197
35	0x3cb6a5f7	0.022295935
36	0x3e990b65	0.29891506
37	0xbc8c3b43	-0.017118102
38	0xbe9a6ee9	-0.30162743
39	0x3e312758	0.17300165
40	0x3e5f8a6b	0.21830146
41	0xbda623d8	-0.081123054
42	0x3de0f2c8	0.10983807
43	0xbe96c5d5	-0.2944781
44	0x3d055931	0.032555763
45	0xbd8cdc12	-0.068779126
46	0xbe98a1a1	-0.29810813
47	0x3d7ce225	0.061739106
48	0x3e08308c	0.13299769
49	0x3d6512f9	0.055926297
50	0x3d244a06	0.040109657
51	0x3c46a6ea	0.012124756
52	0x3c27efa1	0.010250003
53	0x3dde08a7	0.10841494
54	0x3e05235f	0.13001774
55	0xbd99a58a	-0.07502277
56	0x3d1027d8	0.035194248
57	0x3da45570	0.080241084
58	0x3d9dedaa	0.077113464
59	0x3d373e32	0.04473705
60	0x3daa92ae	0.08328758
61	0x3d1c7b66	0.03820362
62	0x3cd0efce	0.025504973
63	0x3d97da9d	0.07414744
64	0x3d483f5f	0.04888856
65	0x3dc46ac0	0.095906734
66	0xbe460929	-0.19339432
67	0x3c9a852d	0.018862331
68	0x3dc95ccd	0.098321535
69	0x3e23e273	0.16004352
70	0xbdfdcb60	-0.12392306
71	0xbc3d58ba	-0.011556799
72	0x3d4e81f8	0.050416917
73	0xbe80d8a3	-0.2516528
74	0xbd5d32dc	-0.05400358
75	0xbe03be49	-0.12865557
76	0xbe330789	-0.17483343
77	0xbd911933	-0.070848845
78	0xbe2aadef	-0.16667913
79	0xbda16c9d	-0.078820445
80	0xbd5253ef	-0.051349577
81	0x3cb0ee61	0.021598043
82	0x3d91287d	0.07087801
83	0x3cb62244	0.022233136
84	0xbd105133	-0.035233688
85	0x3b268e4b	0.0025414403
86	0xbb49b299	-0.0030776619
87	0x3ce732c8	0.028222457
88	0x3c061004	0.008182529
89	0xbd3da185	-0.046296615
90	0xbd9ac6bb	-0.07557436
91	0x3d3582fc	0.04431437
92	0xbc84a5e4	-0.016192384
93	0xbc4aa924	-0.012369428
94	0x3e1a0c4e	0.15043756
95	0xbc4a0e09	-0.012332448
96	0xbc8a6970	-0.01689598
97	0x3ce0af30	0.027427286
98	0x3e0323b7	0.12806593
99	0x3de0bb6e	0.109732494
100	0xbbe1ea92	-0.006894418
101	0x3c4faccf	0.012675478
102	0x3d4bca54	0.049753502
103	0x3d10c67d	0.035345543
104	0x3dc8c325	0.09802846
105	0xbd3ab476	-0.045582257
106	0x3bd49de8	0.0064885505
107	0x3dceb4ce	0.100930795
108	0x3d478659	0.04871211
109	0x3d24744b	0.040149968
110	0xbd773fd3	-0.060363602
111	0x3da0097c	0.07814309
112	0xbd33b194	-0.043870524
113	0xbdc216e8	-0.09477025
114	0x3dc9e0b2	0.0985731
115	0x3ca0b94e	0.01961961
116	0xbc303901	-0.010755778
117	0xbcfbff44	-0.030761369
118	0xbdd321d2	-0.10309185
119	0x3d8de384	0.06928161
120	0x3e1b685c	0.15176529
121	0xbd5b79d2	-0.053582974
122	0x39b6bf14	0.0003485611
123	0x3d92c9b2	0.071673766
124	0x3d7f3e3d	0.062315214
125	0x3cde78d3	0.027157223
126	0xbe19988c	-0.14999598
127	0xbd3865b9	-0.045018885
128	0x3ca6d54a	0.020365376
129	0xbddf3a50	-0.10899794
130	0x3e27235c	0.16322082
131	0xbd6160ec	-0.055024073
132	0xbd9c1efb	-0.076230966
133	0x3cf8b370	0.030359
134	0xbdf7d75a	-0.12101622
135	0x3dea7abc	0.11449191
136	0xbdc2af15	-0.095060505
137	0x3cd7b41f	0.026331006
138	0x3d846126	0.06463842
139	0x3de9f8b6	0.11424391
140	0x3e1c049b	0.15236132
141	0xbc243bb3	-0.010023999
142	0x3e5b0b41	0.21391012
143	0x3dcffac5	0.10155252
144	0x3da827fe	0.08210753
145	0x3e027eaf	0.12743638
146	0xbe81890d	-0.25299874
147	0xbc07c7aa	-0.00828735
148	0xbe915bea	-0.28390437
149	0x3dd7d824	0.105392724
150	0xbe702d39	-0.23454751
151	0x3cb11989	0.021618621
152	0xbde6e490	-0.112740636
153	0x3dabcdf0	0.08388889
154	0x3df618ef	0.120164745
155	0x3ea0bb39	0.3139284
156	0x3bbef34b	0.0058273426
157	0xbde28a21	-0.11061502
158	0xbe06dbe3	-0.13169818
159	0xbe69ed91	-0.2284453
160	0x3d8200bf	0.063477986
161	0xbd529afe	-0.051417343
162	0x3e04b7e3	0.12960772
163	0x3d36859f	0.044561025
164	0xbd233b71	-0.03985161
165	0x3b529031	0.0032129402
166	0x3c4be4c4	0.012444679
167	0x3c700b79	0.014651173
168	0xbd608ebf	-0.054823633
169	0xbc0acdfa	-0.00847196
170	0xbb81cdf7	-0.0039613205
171	0x3da52f1d	0.08065627
172	0xbd2e260b	-0.04251675
173	0xbd6973ba	-0.05699513
174	0x3d0e5b69	0.034755144
175	0xbd074629	-0.033025894
176	0x3cfbb0aa	0.030723888
177	0xbc8e4176	-0.017365199
178	0xbd66606b	-0.056244295
179	0x3da45cfa	0.08025546
180	0x3a041f53	0.0005040068
181	0x3c04a6c4	0.008096401
182	0xbd1e0fca	-0.038589276
183	0x3d9324f0	0.0718478
184	0x3c807a55	0.015683332
185	0x3cbb34ea	0.02285238
186	0x3c988f6a	0.018623073
187	0xbd20e839	-0.039283965
188	0xbd8e7ae8	-0.06957036
189	0x3c86087d	0.01636147
190	0x3de1f716	0.11033456
191	0xbd0e5af5	-0.034754712
192	0xbd3a3a1b	-0.04546557
193	0x3cfded5a	0.030996967
194	0xbdae24c9	-0.0850311
195	0xbd793f5c	-0.06085144
196	0x3d11c3f0	0.03558725
197	0x3ccc5d4e	0.024946835
198	0xbe2d7866	-0.1694046
199	0xbd63e193	-0.055635046
200	0xbdc87cff	-0.09789466
201	0xbe0c9672	-0.13729265
202	0xbdb67031	-0.089081176
203	0xbd7d2226	-0.061800145
204	0xbdab4f9a	-0.08364792
205	0x3d723c52	0.059139557
206	0xbdbf9ff7	-0.09356683
207	0xbce96be0	-0.028493822
208	0x3d0f2234	0.034944728
209	0xbc852116	-0.016251128
210	0x3e4a9592	0.19783619
211	0xbbc8a836	-0.006123568
212	0xbd25c590	-0.040471613
213	0xbdbd8589	-0.092539854
214	0x3cba5917	0.02274756
215	0xbe197639	-0.14986505
216	0x3d7f7169	0.062364016
217	0xbe2fd4fb	-0.1717109
218	0x3e0a7369	0.13520588
219	0x3e03dd0e	0.12877294
220	0xbc113e9c	-0.008865025
221	0xbbeaf761	-0.007170603
222	0xbd6c3b05	-0.057673473
223	0xbc6afde0	-0.014342755
224	0x3ceb54c0	0.028726935
225	0x3e218198	0.15772092
226	0x3f09afc8	0.53783846
227	0xbc914d2f	-0.017737
228	0x3ebfd4b1	0.37466958
229	0x3d77179e	0.060325257
230	0x3e2d7ae9	0.16941418
231	0xbde84a54	-0.11342302
232	0xbe52659b	-0.20546572
233	0x3d6d9068	0.057999045
234	0x3df6bd9c	0.12047884
235	0xbedb0f9e	-0.42785352
236	0x3e12b85b	0.14328139
237	0xbbdcf3bb	-0.006742922
238	0xbd8c8ac7	-0.06862407
239	0xbe32e434	-0.17469865
240	0xbd9343c5	-0.071906604
241	0xbc3d3665	-0.011548613
242	0xbcbde540	-0.023180604
243	0xbb79d898	-0.0038123485
244	0xbd3d9c03	-0.046291362
245	0xbd629c8a	-0.05532507
246	0xbd65de5f	-0.056120273
247	0x3c3dc48a	0.011582503
248	0xb9aad8c3	-0.00032586427
249	0xbd86069e	-0.06544231
250	0xbc5a2e5a	-0.013316715
251	0xbd0703e9	-0.032962713
252	0xbce19741	-0.027537944
253	0xbd51b76d	-0.05120032
254	0x3e7b6884	0.24551588
255	0xbe09f7a7	-0.13473378

conv2.bias f4 [32]
0	0xbeacb546	-0.3373205
1	0xbe431171	-0.19049622
2	0x3e4e02e5	0.20118292
3	0xbe90bdf1	-0.28269914
4	0x3e950c5f	0.29111
5	0xbcd12b6d	-0.025533402
6	0xbe891d05	-0.26779953
7	0xbe1c36e7	-0.15255319
8	0xbea4cd9d	-0.3218812
9	0xbd9986f0	-0.074964404
10	0x3daf3a35	0.08556024
11	0x3c659dd0	0.014014676
12	0x3e381c0b	0.17979448
13	0x3d6e989c	0.05825101
14	0xbe2fb2e0	-0.17158079
15	0x3e28af72	0.16473177
16	0xbdc4bcbf	-0.09606313
17	0xbe800f78	-0.25011802
18	0xbc8be6c4	-0.017077811
19	0xbe8fdc8e	-0.28097957
20	0xbd66df3d	-0.05636524
21	0xbdd789d0	-0.105243325
22	0x3e17ecd9	0.14836444
23	0x3e5aac65	0.21354826
24	0x3e618b05	0.22025688
25	0xbeabefa5	-0.33581272
26	0x3e9357c8	0.2877791
27	0xbd662bb5	-0.056194026
28	0x3e492dde	0.19646403
29	0x3e2df9c6	0.16989812
30	0xbd0150cd	-0.0315712
31	0xbe6d466a	-0.23171392

fc.weight f4 [1, 32]
0	0xbaa4831b	-0.001255128
1	0x3a40b5aa	0.0007351289
2	0xbe55713b	-0.20843975
3	0xbad79672	-0.0016448034
4	0xbaab0b9a	-0.0013049722
5	0xb9dc3e54	-0.00042008108
6	0xba8e02e6	-0.0010834604
7	0x3985bfe2	0.000255107
8	0x384a5406	4.8238806e-05
9	0x3e5ae77e	0.2137737
10	0x3a808cc5	0.0009807578
11	0x3a16872c	0.0005742188
12	0xb9b895f3	-0.00035206936
13	0x3a54d935	0.00081195246
14	0xbeac60d3	-0.3366762
15	0x3aa63d69	0.0012683097
16	0xba577714	-0.0008219343
17	0xbacc377b	-0.0015580499
18	0x3a559336	0.00081472413
19	0x3a24ea94	0.00062910584
20	0xbebc4bcc	-0.36776578
21	0xbea5d471	-0.32388642
22	0x3a036ff2	0.00050139346
23	0xbde3982b	-0.11113008
24	0x3ae6a494	0.0017596656
25	0x38adea4c	8.292924e-05
26	0xb89e2467	-7.5408076e-05
27	0xba219305	-0.000616357
28	0x3a94baaf	0.001134714
29	0x3e83d6e6	0.25749892
30	0x3aa111dc	0.0012288648
31	0x3a938c4a	0.0011257019
