weights/2031/humidity_winter_2031.pth (torch, 5322 bytes, 5 tensors)

conv1.weight f4 [16, 3, 1]
0.02292448 0.026376426 -0.03429607 -0.21938986 0.47630367 -0.42953914 0.050698303 -0.03297446
-0.037189577 0.18025936 0.7028272 0.09393934 0.28254178 -0.045490578 -0.22092833 -0.046955723
-0.35538238 0.20030205 0.09651139 -0.023129616 -0.065592796 -0.27717745 -0.41032174 0.40092438
-0.5618102 0.06930934 0.48335972 -0.39517957 0.07433615 0.32687542 0.04747721 -0.022540411
-0.019518664 0.288042 -0.056677535 -0.23423387 0.30963165 -0.07014779 -0.23536518 -0.18441406
0.047282815 0.12797295 -0.3139487 0.07405979 0.20209277 0.36972794 0.024612928 -0.43775547
00000000: 1ecc bb3c 6013 d83c 097a 0cbd bca7 60be
00000010: 13de f33e 8eec dbbe 06a9 4f3d 3a10 07bd
00000020: 1954 18bd e995 383e 7cec 333f 4563 c03d
00000030: 51a9 903e 5454 3abd 093b 62be a554 40bd
00000040: aef4 b5be fb1b 4d3e c3a7 c53d 527a bdbc
00000050: 8455 86bd 34ea 8dbe b115 d2be f645 cd3e
00000060: cbd2 0fbf 0ef2 8d3d ed7a f73e fa54 cabe
00000070: 8d3d 983d 375c a73e 7777 423d aba6 b8bc
00000080: 9be5 9fbc 3e7a 933e b426 68bd 01db 6fbe
00000090: 0a88 9e3e a5a9 8fbd 9203 71be 0ad7 3cbe
000000a0: a0ab 413d 570b 033e e2bd a0be a9ac 973d
000000b0: 68f1 4e3e fb4c bd3e 0da1 c93c 7c21 e0be

conv1.bias f4 [16]
0.008409408 0.2855116 0.2720934 -0.026931973 -0.18835078 0.69793004 0.2915501 0.30558294
-0.1682108 -0.36057234 -0.04436607 0.25602993 0.20625378 -0.010706802 0.5140315 -0.21931808
00000000: 9dc7 093c 942e 923e d34f 8b3e 71a0 dcbc
00000010: 07df 40be 8bab 323f 0e46 953e 5e75 9c3e
00000020: 743f 2cbe f09c b8be 32b9 35bd 5b16 833e
00000030: 3134 533e 956b 2fbc 9297 033f eb94 60be

conv2.weight f4 [32, 16, 1]
-0.0035646153 -0.022055615 0.17779993 -0.45030305 -0.06201499 0.3950644 -0.17326148 0.4540377
0.18980527 -0.13388027 -0.021254573 -0.032433316 -0.081579074 0.14308098 -0.061279256 0.20252104
-0.07045958 -0.08887137 0.05422484 -0.0584043 -0.42012373 0.00326503 -0.32901287 -0.11112332
-0.3108456 0.039728798 -0.0003837306 0.2447307 -0.037476193 0.2695752 -0.17991784 -0.2963945
0.14779231 0.06718552 0.07520234 0.03962156 0.09890028 0.014839332 0.0075757224 -0.15212022
0.08290135 0.051491447 0.083411425 -0.022106113 0.046134427 0.13366093 -0.15034603 0.10078768
-0.09165002 0.08658453 0.19005544 0.038401302 -0.11792211 -0.050318033 0.079264015 -0.054163028
-0.17397778 -0.11590657 0.25820935 -0.19539861 -0.05618561 -0.0016965672 -0.013276198 0.10759611
-0.23334245 -0.030293113 -0.19400947 0.055268228 -0.27214536 0.12528029 0.02975661 0.0750138
0.015296084 0.098556735 -0.06902453 -0.18960413 0.07158511 -0.10216633 -0.18873048 0.03472263
0.10835762 0.033530172 0.1825187 -0.1104375 0.031816185 0.3190127 0.17490114 0.1388868
-0.08451623 0.23879391 -0.15475689 0.007118168 0.2231758 -0.18659326 0.08769851 -0.07640256
0.072040424 -0.12301075 -0.007985026 -0.24569143 0.11857849 0.10797711 0.22550452 0.1609418
-0.06312633 -0.016508475 0.08947811 -0.17571162 0.022172904 0.1128838 0.056960467 0.22674827
-0.0111575695 -0.15343824 -0.031238902 -0.47223282 -0.18448462 0.31763792 -0.17612815 0.35547847
-0.034112625 -0.0497292 0.031008447 -0.12942456 0.13161609 -0.010385521 -0.053981993 0.15669279
0.15775214 0.14840584 0.07747392 0.018114323 0.031643867 0.028051242 -0.06937955 -0.027503034
0.023611551 -0.32970524 0.23090617 -0.021640435 0.023729088 0.12396887 -0.041176792 0.10686515
0.024591258 0.20227891 -0.15630092 0.1521784 0.13812102 -0.18770346 -0.15195577 -0.10799724
-0.07580809 -0.11859073 0.11719821 -0.10037693 -0.12932295 -0.076788075 -0.32314423 -0.09181127
-0.061123736 0.043991555 -0.10771213 0.42497405 -0.22170639 0.12817627 -0.046579354 -0.39682
0.042971488 -0.074890286 -0.12359232 -0.15438867 0.31476215 -0.17686187 0.07201831 -0.15235305
-0.028441353 0.10275835 -0.030004626 -0.06885294 0.10942433 0.25006092 0.057988234 0.22755283
-0.08128344 0.014919534 0.2554593 -0.20189387 -0.24845769 0.049738847 -0.05001681 -0.14756826
0.13818257 0.10748891 0.078415826 0.022016706 0.32798535 0.020945726 0.13666233 0.059617113
-0.12799571 -0.008939897 0.21614414 -0.21269423 0.013786472 0.06055444 0.26103804 0.019983286
-0.20389587 -0.21330763 0.01019819 -0.11063617 0.35284966 -0.32330668 -0.023855522 -0.12264808
0.46923244 -0.14154899 0.106087774 0.017649911 -0.05211338 0.0006742731 0.0034052706 0.039814584
-0.16175167 -0.06954204 0.04547079 -0.051262904 0.022612019 0.04015832 0.15620516 -0.16951792
0.059169233 0.049037375 -0.039047908 -0.014050706 -0.12842552 0.0898677 0.19432715 0.2291792
0.043777015 0.077799365 0.08954507 0.053433817 -0.020570653 -0.18171282 0.069763415 0.1945662
0.074138 0.22084625 0.22070146 0.123774074 0.19805992 -0.21506575 0.12821011 0.23472044
00000000: 529c 69bb faad b4bc 2f11 363e 1f8e e6be
00000010: 6e03 7ebd e245 ca3e 756b 31be a177 e83e
00000020: 505c 423e e917 09be 121e aebc ccd8 04bd
00000030: ee12 a7bd d283 123e f5ff 7abd ad61 4f3e
00000040: 1d4d 90bd 3102 b6bd de1a 5e3d 5939 6fbd
00000050: 751a d7be 1dfa 553b 6074 a8be a094 e3bd
00000060: 2827 9fbe aaba 223d 732f c9b9 af9a 7a3e
00000070: a380 19bd c305 8a3e 623c 38be 05c1 97be
00000080: de56 173e 9098 893d af03 9a3d 384a 223d
00000090: 3b8c ca3d ab20 733c c43d f83b 67c5 1bbe
000000a0: 2fc8 a93d b2e8 523d 9cd3 aa3d e117 b5bc
000000b0: 74f7 3c3d 69de 083e 4ff4 19be c569 ce3d
000000c0: 01b3 bbbd 3b53 b13d e59d 423e af4a 1d3d
000000d0: 2681 f1bd 481a 4ebd 2c55 a23d 0dda 5dbd
000000e0: 3b27 32be 6c60 edbd 0434 843e 9316 48be
000000f0: e222 66bd 595f deba 6984 59bc 595b dc3d
00000100: 53f1 6ebe 4329 f8bc 6baa 46be f060 623d
00000110: a356 8bbe 7a49 003e 22c4 f33c d6a0 993d
00000120: 6d9c 7a3c 1dd8 c93d bc5c 8dbd 9627 42be
00000130: 379b 923d 953c d1bd 9042 41be 5139 0e3d
00000140: 9aea dd3d ef56 093d 2fe6 3a3e 0e2d e2bd
00000150: b051 023d a255 a33e 4919 333e 5738 0e3e
00000160: d816 adbd 6486 743e 9778 1ebe 853f e93b
00000170: 3288 643e 4e12 3fbe 479b b33d f278 9cbd
00000180: ee89 933d 0fed fbbd a0d3 02bc 8996 7bbe
00000190: 48d9 f23d 1a23 dd3d a8ea 663e edcd 243e
000001a0: 6148 81bd c83c 87bc 4d40 b73d bfed 33be
000001b0: f3a3 b53c 9f2f e73d 614f 693d b330 683e
000001c0: 3dce 36bc ea1e 1dbe bae8 ffbc 80c8 f1be
000001d0: 89e9 3cbe 70a1 a23e f05a 34be 4601 b63e
000001e0: aeb9 0bbd d8b0 4bbd 6d05 fe3c df87 04be
000001f0: 5ec6 063e 0828 2abc 391c 5dbd 1374 203e
00000200: c789 213e b3f7 173e a6aa 9e3d 7d64 943c
00000210: 009d 013d b8cb e53c de16 8ebd 0b4e e1bc
00000220: 036d c13c 20cf a8be ab72 6c3e 4847 b1bc
00000230: 8163 c23c 64e3 fd3d ffa8 28bd 1edc da3d
00000240: 9b73 c93c 3422 4f3e 590d 20be a8d4 1b3e
00000250: 996f 0d3e 5635 40be 4b9a 1bbe a82d ddbd
00000260: 4641 9bbd b2df f2bd 9d05 f03d 6b92 cdbd
00000270: 3c6d 04be 1143 9dbd 2973 a5be 8c07 bcbd
00000280: e25c 7abd 7d30 343d 2d98 dcbd 3396 d93e
00000290: 0007 63be a440 033e fec9 3ebd fe2b cbbe
000002a0: df02 303d 1460 99bd f81d fdbd 1018 1ebe
000002b0: 8128 a13e 471b 35be 567e 933d 7002 1cbe
000002c0: d7fd e8bc f872 d23d 43cc f5bc c502 8dbd
000002d0: dd19 e03d fc07 803e 1285 6d3d 9c03 693e
000002e0: ef77 a6bd 1071 743c 90cb 823e 44bd 4ebe
000002f0: b16b 7ebe f6ba 4b3d 6dde 4cbd 221c 17be
00000300: bb7f 0d3e 2523 dc3d 7a98 a03d 615c b43c
00000310: b2ed a73e 5f96 ab3c 36f1 0b3e 1331 743d
00000320: 4f11 03be a578 12bc e454 5d3e 84cc 59be
00000330: a8e0 613c ef07 783d c7a6 853e fdb3 a33c
00000340: 14ca 50be 516d 5abe 4f16 273c 3795 e2bd
00000350: b6a8 b43e 7488 a5be a86c c3bc eb2e fbbd
00000360: 3c3f f03e 38f2 10be 8c44 d93d 8c96 903c
00000370: d774 55bd b4c1 303a f62a 5f3b 9e14 233d
00000380: 3ba2 25be 0f6c 8ebd 943f 3a3d 0df9 51bd
00000390: d73c b93c 0d7d 243d 3ff4 1f3e 1b96 2dbe
000003a0: 705b 723d 6adb 483d b3f0 1fbd ef34 66bc
000003b0: fb81 03be 8f0c b83d b2fd 463e f4ad 6a3e
000003c0: 874f 333d 4655 9f3d 6863 b73d 6bdd 5a3d
000003d0: c983 a8bc ed12 3abe 1fe0 8e3d 5d3c 473e
000003e0: aad5 973d 8525 623e 90ff 613e 437d fd3d
000003f0: 38d0 4a3e 323a 5cbe 8349 033e 8e5a 703e

conv2.bias f4 [32]
-0.06367552 -0.28026834 -0.20775758 -0.22406046 0.053799596 -0.051877383 0.058064565 -0.1559732
0.08965752 0.26826632 0.3143269 0.029468335 -0.08773678 0.20722292 0.064131744 0.23984204
-0.006253345 -0.16292125 -0.13204756 0.20823467 -0.0115406895 0.073281035 -0.44518548 -0.30431592
0.20093632 0.1441901 0.040211577 -0.12829627 0.032903165 0.23696531 -0.2971331 -0.32547265
00000000: 5068 82bd 557f 8fbe 67be 54be 1b70 65be
00000010: f75c 5c3d 617d 54bd 1cd5 6d3d 70b7 1fbe
00000020: 5d9e b73d 345a 893e 75ef a03e 9467 f13c
00000030: 57af b3bd 3f32 543e 8157 833d 2799 753e
00000040: dce8 ccbb d4d4 26be 7a37 07be 783b 553e
00000050: 2915 3dbc 5e14 963d 5aef e3be 4ccf 9bbe
00000060: 40c2 4d3e 92a6 133e e5b4 243d 1960 03be
00000070: 78c5 063d 09a7 723e d421 98be 5aa4 a6be

fc.weight f4 [1, 32]
-0.27659243 -0.0076432326 0.034168698 0.02751913 -0.00054499716 -0.09430631 -0.12260206 -0.31077656
0.011114691 0.10084148 0.19389366 -0.07292479 -0.0015591081 0.0029710194 -0.0034842468 0.010474844
-0.16447394 -0.002361531 0.09993626 0.1301961 -0.0013047743 -0.0031099697 -0.009990797 0.00083541335
0.04318204 0.0032778392 -0.0018992375 -0.25046572 -0.00086526404 0.004354302 -0.030550849 -0.24493255
00000000: 869d 8dbe 1574 fabb 7af4 0b3d cc6f e13c
00000010: 24de 0eba ab23 c1bd ca16 fbbd 1b1e 9fbe
00000020: 651a 363c fa85 ce3d 0f8c 463e 9859 95bd
00000030: fd5a ccba 6fb5 423b f657 64bb ae9e 2b3c
00000040: db6b 28be eac3 1abb 62ab cc3d 2052 053e
00000050: f604 abba a2d0 4bbb 71b0 23bc a4ff 5a3a
00000060: a7df 303d 04d1 563b d6ef f8ba 0b3d 80be
00000070: e3d2 62ba 88ae 8e3b c645 fabc 99cf 7abe
