weights/2031/humidity_summer_2031.pth (torch, 5322 bytes, 5 tensors)

conv1.weight f4 [16, 3, 1]
00000000: 275d f4bd 1c34 07bc 478e 023e 29f7 a93d
00000010: ff61 043b 536a a0bd 4264 a9be 80e7 913d
00000020: c090 343e dcd0 003f 71e2 7a3e 070e 04bf
00000030: c608 cfbe fbc0 063e d611 2d3e da02 4b3e
00000040: 7f7c debe 2a1f 17be e452 c73e cbb6 163e
00000050: 24e9 833d 1dba 053e 8b13 90ba 3957 dbbd
00000060: 0289 363f 9248 193e 173a 92be 7eb0 b13e
00000070: eabf 83bc 6827 96be f50f f83d 54cd d03e
00000080: 1e2a dcbe 376b 6fbc bd4e a33e fcd5 13bd
00000090: 7d1a 8d3e c69a 913e dadc 0bbf 6694 c63d
000000a0: 69cd 8c3e 6b81 e1be 6a02 083f d45f c5be
000000b0: cbb8 443e 7422 b8be f255 693c 073a 9a3e
-0.1193183 -0.00825217 0.12749587 0.08299095 0.0020200012 -0.0783278 -0.33084303 0.07124233
0.17633343 0.50318694 0.24500443 -0.51583904 -0.4043638 0.13159554 0.16901335 0.19825307
-0.43454358 -0.14757982 0.38930428 0.14718167 0.064409524 0.13059278 -0.0010992152 -0.10709996
0.7130281 0.1496909 -0.28559944 0.34704965 -0.016082723 -0.2932694 0.121124186 0.40781653
-0.43000883 -0.014612964 0.3189601 -0.036092743 0.2755927 0.28438395 -0.5463387 0.096962735
0.27500466 -0.4404405 0.53128684 -0.38549674 0.19211118 -0.35963786 0.014241682 0.30122396

conv1.bias f4 [16]
00000000: 8488 0c3e 9549 83bd 04af 41be 6c14 28bf
00000010: c11c 45bf 80a5 94bd 9905 eb3c 2399 a1be
00000020: 494c 173f 2ea7 84be c233 6bbe 213f 4ebe
00000030: 1cd2 053f ad19 473e 5de6 d7bd 8c10 063f
0.13723952 -0.06410519 -0.1891442 -0.6565616 -0.76997 -0.07258129 0.028689193 -0.31562147
0.59100777 -0.25908798 -0.22968963 -0.2014127 0.52273726 0.19443388 -0.10541985 0.52369

conv2.weight f4 [32, 16, 1]
00000000: 0ccc b0be 8fd9 093c f32c 143e 615c 49bd
00000010: 8d31 55bd 105b 35be 6bb8 293d d9e7 273d
00000020: f376 073c cb78 21be 2532 e4bd 7149 85be
00000030: 6620 aabd 5ebf 7c3e 48d1 223c ec57 e1bc
00000040: 181c 093e b23f 6c3d 0294 2a3e 05bb debd
00000050: 511f bd3d 21ef 1e3e bfc1 e53d 8b12 38be
00000060: dac5 f13d 4fbd 45be 7812 1c3e 38ce 82be
00000070: a02e 8a3e 24d6 973b 470d a13d 2dba e73d
00000080: 2868 16be 3170 103e 9bee 7dbd 2be3 d13e
00000090: 3052 fdb7 3783 d1bd ef3a 873e 8aa2 1c3e
000000a0: e37d ee3e a081 633e dfc2 9f3e 8d0b 7d3e
000000b0: f4ee 993e 3c2a e33d 5f18 483e d947 7cbc
000000c0: b8ca 85be e682 a03d d5b9 ebbd 9249 55bc
000000d0: 52cf 2c3e 9775 fdbc 5533 783e 3bef 193e
000000e0: d519 833e 7ed7 153e 12a6 14bd 796e 393e
000000f0: 32ec 933e cafa 143e 4636 f53d 0d23 6abe
00000100: 0acd cabd 9630 c7bb 4dda 59bd 9b0a a73b
00000110: 0483 953c aeee 043e 82ba 5ebe 1645 8fbb
00000120: 72d5 92be 3f1a 2d3e 0b98 24bd fb14 2b3e
00000130: b7f5 92be 9d1c 82bc c634 7d3d 7c31 c83d
00000140: 9763 31bd 3b12 ed3d 6120 08be 2dc6 20be
00000150: a7f1 ba3b ef19 223e 453d 953e 0026 e2bc
00000160: fe8e 10be 7a6b bdbd 7862 23be f9c3 e73d
00000170: f488 db3d 9476 833e ccbd 66bd 9c1f 653b
00000180: 37cf 3d3e 3cb0 43be e088 03be 0cba f13e
00000190: 3092 1bbc cc9c b8be 859c aabd 723f 19bd
000001a0: 0d2b df3e 27fa b7bd 46f9 5f3e d5c3 c5bd
000001b0: 3e3c fb3e 10b7 983e 8e29 53be f6fb 35be
000001c0: 5525 9e3d e276 3abe 4528 4a3d 5e73 aabe
000001d0: a30d cfbd bb73 733e 22dc 5fbe fb49 15bd
000001e0: 451a aebe e5ea e3bd ffe7 023d 2a34 a7be
000001f0: 2b68 5cbe 4f8a aabe f124 643d b078 983d
00000200: d26f 793e 2ae6 aebd 507e 3dbe fd78 80be
00000210: 02bd 08be 737f 2a3d 4579 88be 4be4 423e
00000220: cd06 b0be 69f4 0a3e f3ab 99be 6d6e 81be
00000230: de95 d0be 964c 363e 03f0 ba3c 79d1 8e3e
00000240: af22 6cbb 393e 6dbe ecd2 12be fb44 9dbe
00000250: d85d 453e c708 203e 2b8f 27be 596a c9bd
00000260: ad7d 003e 56ae debd f940 203d b8ce 13be
00000270: 7739 183d 8c1f 2b3e 83b9 263e 2eff 6bbd
00000280: c9f9 583c 8fa3 f239 846b 9fbe 083b f53d
00000290: cd53 5d3d 0ef1 5a3d 62f6 583d a9f5 2dbd
000002a0: 40d1 44be 83c2 7abd 3776 0fbd d623 263e
000002b0: b2e4 823d e968 a43c 86b5 bc3d 4049 173e
000002c0: 0173 78be 7d03 39bc 242a e8bd 40b6 393d
000002d0: 175a 6cbe 3ab5 f53c 8e03 223e fc30 91be
000002e0: de76 87be 4943 843d 824d 1c3e f2a2 da3d
000002f0: e2b5 39be fa20 3c3d 4c89 59bc bdf4 b5bd
00000300: f7ab dd3c da11 203e d967 94be 0afb 953d
00000310: b6e2 b5bd 26aa afbd 99a6 05be 7314 32be
00000320: c79b e23d 4b92 b53c ce84 173e fd5a 2dbe
00000330: 7073 cbbd 91bb 11be dd34 98bd d2d5 653e
00000340: 277c 8e3e 2457 3ebe 316a 723d fc56 2fbc
00000350: 2390 d5bd daa8 9d3d 3d75 4e3e b9c0 2b3e
00000360: a49f ebbc 1997 f93c 3f3a f5bd a047 cebd
00000370: 6dc7 523d da8a 4e3d d595 5abe d1ae 9bbd
00000380: 0a2b 4f3e 78b4 2fbe 010f 62bd 473d 7f3e
00000390: d813 7dbd 2698 85bd 4982 a13e 3b04 053d
000003a0: 265a e53d 383d 80be 9fa6 f7bb aa60 113e
000003b0: 5d15 383e 1de8 1a3c e128 78bd 1919 d73d
000003c0: 7c36 ffbd ef9e 78be 737c 893d 3833 f5bb
000003d0: dd3a 4fbe b450 4cbd 9d2b 28bc a6a9 de3d
000003e0: 9429 ec3e c9ac 253e 2477 5d3e 2fb6 3d3e
000003f0: dabe 983e 7dc3 363e 2a8d 40bc dfff b1bc
-0.34530675 0.008413686 0.14470272 -0.049160365 -0.05204921 -0.17710519 0.04143564 0.04099259
0.008268106 -0.15768735 -0.11142377 -0.26032594 -0.08306961 0.24682376 0.009937592 -0.027507745
0.13389623 0.057677932 0.16658023 -0.10875515 0.09234489 0.15520908 0.11218595 -0.17975824
0.11805315 -0.19310497 0.1524142 -0.25547957 0.26988697 0.004633682 0.078638606 0.11314807
-0.1468817 0.14105298 -0.06199513 0.40993628 -3.0198222e-05 -0.10230105 0.2641215 0.15296379
0.4658042 0.22217417 0.31203362 0.24711438 0.3006512 0.1109204 0.19540547 -0.015397989
-0.26131225 0.07837467 -0.11510054 -0.013018029 0.16875961 -0.03093986 0.24238332 0.15032665
0.25605646 0.14632985 -0.03629119 0.18108548 0.2889114 0.14548793 0.119732425 -0.22864933
-0.09902389 -0.00607879 -0.053186703 0.0050977 0.01825095 0.12981674 -0.21750835 -0.0043722494
-0.2867847 0.16904543 -0.040184062 0.16707222 -0.2870309 -0.015882785 0.061817907 0.097750634
-0.043307867 0.11575743 -0.13293602 -0.15700598 0.0057050767 0.15830205 0.29148307 -0.02760601
-0.14117047 -0.09249015 -0.15955532 0.11316676 0.10719481 0.25676405 -0.05633335 0.0034961468
0.18536077 -0.19110197 -0.12845182 0.47212255 -0.009495303 -0.36057127 -0.08330635 -0.03741402
0.43587533 -0.0898326 0.21872434 -0.096564926 0.490694 0.29827166 -0.2062132 -0.17771897
0.07721964 -0.18209413 0.04935481 -0.33291143 -0.10110023 0.23774616 -0.21861318 -0.036447506
-0.34004417 -0.11128787 0.03195953 -0.32656986 -0.21524112 -0.33308646 0.055699293 0.07444894
0.24359062 -0.08539994 -0.18505216 -0.25092307 -0.13353351 0.04162545 -0.2665502 0.190324
-0.3438019 0.13569798 -0.30014 -0.2527956 -0.4073934 0.17802653 0.022819525 0.2789419
-0.0036031415 -0.23168267 -0.14338273 -0.3071669 0.1927408 0.15628348 -0.16363208 -0.09834737
0.12547942 -0.10873096 0.039124463 -0.14434326 0.037164178 0.16711253 0.16281705 -0.057616405
0.013243147 0.00046279698 -0.31136715 0.1197415 0.054034997 0.053452544 0.052969344 -0.042470608
-0.19220448 -0.061220657 -0.035024848 0.16224608 0.063912764 0.020069556 0.0921431 0.14774036
-0.2426262 -0.011292336 -0.11336163 0.045339823 -0.23081242 0.029993642 0.15821669 -0.28357685
-0.26457876 0.06458146 0.15263942 0.106756106 -0.18135789 0.045929886 -0.013277363 -0.08884571
0.027059538 0.1563181 -0.2898548 0.073232725 -0.08881132 -0.08577375 -0.13051833 -0.17390613
0.110648684 0.022164484 0.14796755 -0.1692924 -0.09934127 -0.14231707 -0.07431958 0.22444847
0.27829096 -0.18587929 0.059183303 -0.010701891 -0.104278825 0.076982215 0.2016191 0.16772737
-0.028762646 0.030467557 -0.11974 -0.10072255 0.05145972 0.050425388 -0.21346219 -0.07601703
0.20231262 -0.17158687 -0.05519009 0.24925719 -0.061786503 -0.06523161 0.31544712 0.032474738
0.11198835 -0.25046706 -0.0075577046 0.1419703 0.179769 0.009454754 -0.06058586 0.10502834
-0.12461564 -0.24279378 0.0671319 -0.0074829124 -0.20237298 -0.049881652 -0.0102643045 0.108722016
0.46125472 0.16179194 0.2162748 0.18526529 0.29833108 0.1784801 -0.011752406 -0.021728454

conv2.bias f4 [32]
00000000: 68a1 723c d04a a0bd 2b90 8b3e 4ec1 4d3e
00000010: 253a 883b b415 3b3e 53c4 b63c 04b4 dabd
00000020: f904 22bd 8e39 973d f26d 213e 913a c63d
00000030: 2ede 1f3d 668a b93e e89e 563e d668 4dbd
00000040: 9a01 143d 5003 5c3e 8129 edbd fcf9 40bc
00000050: 79b1 03be abc7 98be d229 6abc 026f 3b3e
00000060: d175 9b3e b4ac 4fbe d47a 2d3e 6566 343e
00000070: ea53 8b3e c661 613e 7ac3 883e 59a7 4abe
0.01480899 -0.07826769 0.2725843 0.20093271 0.004157322 0.18269998 0.022310412 -0.106788665
-0.039555524 0.073840246 0.15764597 0.096791394 0.039030246 0.36238402 0.20959055 -0.050148807
0.03613434 0.21485639 -0.11580182 -0.011778351 -0.12860669 -0.29839835 -0.014292197 0.18304065
0.30363324 -0.20280725 0.16941386 0.17617185 0.2721246 0.22009954 0.26711637 -0.197904

fc.weight f4 [1, 32]
00000000: 395b 9f3b 1685 893b 2a1f 753e 587b cf3d
00000010: e510 aebd e090 e4b9 e04c 4f3e 6d86 5cbe
00000020: d3c5 11be 008c 89bd 5883 23bb 1e30 7bbb
00000030: 62c9 de3a 124f 2d3a e4ec 0c3e b34f 103e
00000040: d886 7639 0e62 90bd 00b2 ca3d a524 0f3b
00000050: 5492 f93d a9ea be3b b89f 8c3b 17b1 323e
00000060: 3395 113e 869c 913b 9fa2 273a 43b8 143e
00000070: d952 a9bc ddb7 05be 2acb 1f3e b0ea 1d3d
0.0048631695 0.0041967733 0.2393767 0.10130948 -0.08499316 -0.0004359549 0.20244169 -0.21535654
-0.1423562 -0.06716156 -0.0024950113 -0.003832824 0.0016997273 0.00066112087 0.13762242 0.14092903
0.00023510621 -0.070499524 0.09897232 0.002184191 0.12186113 0.0058263135 0.004291501 0.17450367
0.14217071 0.004443708 0.0006394777 0.14523415 -0.020669388 -0.1305842 0.15604845 0.038553894
