weights/2001/humidity_summer_2001.pth (torch, 5322 bytes, 5 tensors)

conv1.weight f4 [16, 3, 1]
0	0x3d6e4933	0.058175277
1	0xba601af9	-0.0008548941
2	0xbd84465f	-0.06458735
3	0xbde36e5a	-0.11105032
4	0x3eb51ef3	0.35375175
5	0x3f2f3e0a	0.6845404
6	0x3ed6c292	0.4194532
7	0xbbff5637	-0.00779226
8	0xbecb6ea4	-0.3973285
9	0xbeebc422	-0.46048075
10	0x3d263802	0.040580757
11	0x3ec016a2	0.37517267
12	0x3f58b4a5	0.8465064
13	0xbee7b02c	-0.45251596
14	0x3d460c2c	0.04835145
15	0x3eaa586f	0.33270594
16	0xbee7450e	-0.45169872
17	0xbe165b8a	-0.14683357
18	0xbe201182	-0.15631679
19	0x3be88d2a	0.007096906
20	0x3dc530ac	0.09628424
21	0xbc8d8c4f	-0.017278818
22	0x3bf99b51	0.007617392
23	0x3adb0809	0.0016710769
24	0x3e854d29	0.2603543
25	0xbc16eb38	-0.009211354
26	0xbe793fc5	-0.24340732
27	0xbd8aeb29	-0.067831345
28	0xbd2f5732	-0.042807765
29	0x3e5e3f23	0.21703772
30	0xbf25a442	-0.6470376
31	0xbbb96026	-0.0056572137
32	0x3f373a5c	0.71573424
33	0xbcb9b004	-0.022666939
34	0xbd3cb19b	-0.046067815
35	0x3dee3b72	0.11632432
36	0x3f163adf	0.5868358
37	0xbd3bd245	-0.045854826
38	0xbf01bf86	-0.50682867
39	0x3e84df28	0.25951505
40	0xbc182034	-0.009285022
41	0xbe853ce6	-0.26023024
42	0x3d432005	0.047637958
43	0x3994356d	0.00028268565
44	0xbd4c8845	-0.049934644
45	0x3e8d954b	0.27652964
46	0xbb12e7ff	-0.0022416112
47	0xbea06385	-0.31325927

conv1.bias f4 [16]
0	0x3e846169	0.25855568
1	0xbcadafdd	-0.021202022
2	0x3c457989	0.012052902
3	0xbf012c66	-0.5045837
4	0x3b837f36	0.0040129675
5	0x3ea673c7	0.32510206
6	0x3f75bab2	0.95988
7	0xbc9b081d	-0.018924767
8	0x3e09164b	0.1338741
9	0xbf472dc7	-0.77804226
10	0xbf584385	-0.84478027
11	0x3f2161c9	0.63039833
12	0x3f39ea8f	0.72623533
13	0x3f188059	0.59570843
14	0x3cb9857d	0.02264666
15	0x3f829342	1.020119

conv2.weight f4 [32, 16, 1]
0	0xbd93a406	-0.07209019
1	0x3c6b5706	0.01436401
2	0xbd177a51	-0.036981884
3	0x3e08195d	0.13290925
4	0x3e2454c8	0.16047966
5	0xbccb6943	-0.024830466
6	0xbe39bb73	-0.18137912
7	0xbe02ea8d	-0.12784787
8	0x3e8d6363	0.2761489
9	0xbeeba328	-0.46022916
10	0xbd8a4288	-0.06750971
11	0xbeb02770	-0.34405088
12	0xbef2f35c	-0.47451293
13	0x3e3a6b2a	0.18204942
14	0xbd819dc5	-0.0632892
15	0xbbeded5a	-0.0072609605
16	0xbd3f9b7c	-0.04677914
17	0x3da378f6	0.07982056
18	0xbe41a721	-0.18911411
19	0x3da4029d	0.08008311
20	0xbba2d731	-0.0049695005
21	0x3de0cb17	0.10976236
22	0x3e0d88d3	0.13821726
23	0x3c6f7533	0.014615345
24	0x3e361524	0.17781502
25	0x3e01ae1b	0.12664072
26	0xbe3b7d21	-0.18309452
27	0xbdd897c1	-0.1057582
28	0xbe375623	-0.17903952
29	0x3e3c750a	0.18404022
30	0xbdad519a	-0.0846283
31	0x3e07306d	0.13202067
32	0x3d4114f4	0.047139123
33	0x3cb190cd	0.021675492
34	0xbcf1c83a	-0.02951442
35	0xbd09795c	-0.033563003
36	0x3ccfd310	0.025369197
37	0x3ccf44af	0.025301306
38	0x3b9fab51	0.0048727174
39	0xbc0b5260	-0.008503526
40	0xb9511cbc	-0.00019942498
41	0xbd95f55c	-0.07322189
42	0xbe3ee88b	-0.18643396
43	0x3dda866a	0.10670169
44	0xbda3e74e	-0.08003102
45	0xbdc145b8	-0.09437126
46	0x3c23df74	0.010002006
47	0x3ce4b374	0.027917601
48	0x3d8ec5f7	0.069713525
49	0x3c51cc6c	0.012805086
50	0x3e32cb34	0.17460328
51	0xbe3ec280	-0.18628883
52	0xbe1e7006	-0.15472421
53	0x3d91301a	0.07089253
54	0x3b352a82	0.0027643745
55	0x3dcb359e	0.09922336
56	0xbdf69fca	-0.12042196
57	0x3e06c514	0.13161117
58	0x3c6d64b6	0.014489343
59	0x3e99d9e5	0.30049053
60	0x3d795ce6	0.06087961
61	0xbe1176d7	-0.1420549
62	0xbcef3afb	-0.029202929
63	0xbdabd109	-0.0838948
64	0x3e283d0d	0.16429539
65	0x3ea8d8f4	0.32978022
66	0xbd948c3c	-0.0725331
67	0x3e7abf13	0.24486952
68	0xbe95bfa6	-0.2924778
69	0xbe42054f	-0.18947338
70	0x3e63f921	0.22263004
71	0x3e1424c3	0.14467148
72	0xbe22fdba	-0.15917102
73	0x3e2660e2	0.16247895
74	0x3e4291b8	0.190009
75	0x3c94325e	0.018090423
76	0x3e03eaa9	0.12882484
77	0x3d12209c	0.03567563
78	0xbdd95bf6	-0.10613243
79	0xbe0ca31a	-0.13734093
80	0xbdaaf441	-0.08347369
81	0x3e44c24a	0.1921474
82	0xbe83f3b4	-0.25771868
83	0x3e88159e	0.26578993
84	0x3d83e804	0.06440738
85	0xbe183f9b	-0.14868014
86	0x3df07774	0.11741534
87	0xbdb5ca4f	-0.08876478
88	0x3d32c259	0.043642376
89	0xbe54b293	-0.20771246
90	0xbefc1d04	-0.49240887
91	0x3e77c323	0.24195533
92	0x3e7ba875	0.2457598
93	0x3e49c812	0.19705227
94	0x3ded2852	0.11579956
95	0x3decbd5b	0.11559554
96	0xbdb71f57	-0.089415245
97	0xbda62069	-0.081116505
98	0x3e29ba80	0.1657505
99	0xbe3bd7a2	-0.18343976
100	0x3d8c4a0e	0.06850062
101	0xbe0bcbea	-0.13652006
102	0x3dbc16ae	0.09184013
103	0xbdc90fd4	-0.09817472
104	0xbdf05487	-0.11734872
105	0xbe091f8a	-0.13390937
106	0x3ee7cb44	0.45272267
107	0xbe8d7c5a	-0.27633935
108	0x3e502248	0.20325577
109	0xbd4de8e3	-0.050270926
110	0xbde1177c	-0.109908074
111	0x3d68a64d	0.05679922
112	0xbc6f2291	-0.014595644
113	0xbd8af4c2	-0.06784965
114	0xbc56445b	-0.013077821
115	0xbebf4569	-0.37357643
116	0xbd706b76	-0.058696233
117	0xbd92b83a	-0.07164045
118	0xba4f16cb	-0.000789982
119	0x3da261b5	0.079287924
120	0xbd1fc552	-0.03900654
121	0x3e031395	0.12800439
122	0x3ea42f15	0.3206717
123	0xbdb0968e	-0.08622466
124	0x3e94c179	0.29053858
125	0xbdf2ffbb	-0.11865183
126	0xbc401d05	-0.011725669
127	0xbdd56c2f	-0.10421025
128	0x3db74c6f	0.089501254
129	0x3d93a800	0.07209778
130	0xbc9c36e8	-0.01906915
131	0x3e225e71	0.15856339
132	0xbd03fa91	-0.03222138
133	0x3dea1d33	0.114313506
134	0xbe4084d3	-0.18800668
135	0xbde68d7d	-0.112574555
136	0x3c94c687	0.018161071
137	0xbe80b5b1	-0.2513862
138	0xbd9cbcf0	-0.076532245
139	0xbafab782	-0.0019128176
140	0xbe0b4305	-0.13599785
141	0x3d45ad88	0.048261195
142	0x3cc2be89	0.023772495
143	0xbab6ea2a	-0.0013955284
144	0xbccc4e1d	-0.024939591
145	0xbdcb7bde	-0.09935735
146	0xbe86bcac	-0.2631582
147	0xbe8dc6c9	-0.27690724
148	0xbd0f1d02	-0.034939773
149	0xbe188c00	-0.14897156
150	0x3dbc1cff	0.09185218
151	0x3da9486c	0.082657665
152	0xbced392b	-0.028957924
153	0x3ea98d29	0.3311551
154	0x3de4f31a	0.111791804
155	0x3dbfc26c	0.09363255
156	0x3e8f2529	0.27958038
157	0x3d3e029e	0.046389215
158	0x3dbd356f	0.09238707
159	0xbda006f2	-0.07813825
160	0xbde66401	-0.11249543
161	0x3ee14579	0.43998316
162	0x3bf015ca	0.007326816
163	0x3d84ab62	0.06478001
164	0xbe3ab1e5	-0.18231924
165	0xbe88a1e5	-0.26686016
166	0xbd04d663	-0.032431018
167	0xbe4e81ea	-0.20166746
168	0x3dad0054	0.08447328
169	0x3db8a269	0.09015352
170	0xbcefb3a2	-0.02926046
171	0xbdeed88b	-0.11662396
172	0xbe1a7a00	-0.15085602
173	0x3e2be50a	0.1678659
174	0x3d30bf84	0.043151394
175	0xbdeb732f	-0.11496579
176	0xbe869433	-0.26284942
177	0xbe49414d	-0.19653817
178	0x3dc2cc32	0.095116034
179	0x3cfabfbb	0.030609002
180	0x3e419f46	0.18908414
181	0x3e3b6577	0.18300425
182	0xbdf186dd	-0.11793301
183	0x3db8b8d9	0.09019632
184	0x3d4104e2	0.047123797
185	0x3cf2e938	0.029652223
186	0x3dc139eb	0.09434875
187	0x3dc1fd41	0.094721325
188	0xbdbad481	-0.09122563
189	0xbdf13a4e	-0.11778699
190	0x3e4b8581	0.19875146
191	0xbbf6c4b8	-0.007530775
192	0x3cef69fb	0.02922534
193	0x3e012b43	0.1261416
194	0xbe2d1e42	-0.16906074
195	0xbe055efe	-0.13024518
196	0xbde9a06c	-0.11407551
197	0x3e60e85d	0.2196364
198	0xbcc917d1	-0.02454749
199	0xbd8ec596	-0.0697128
200	0xbcad07fe	-0.021121975
201	0x3c864fcc	0.016395472
202	0xbe441e57	-0.19152199
203	0xbcd123e2	-0.025529806
204	0xbcac6d5d	-0.021048242
205	0xbda0fe43	-0.078609966
206	0x3dc4d691	0.09611238
207	0xbd27ae84	-0.040937915
208	0x3e11f8c5	0.14255054
209	0xbeb9b789	-0.3627284
210	0xbd507e9a	-0.050901987
211	0x3d82f9dd	0.06395314
212	0x3e8957bb	0.26824746
213	0x3ed35009	0.41272
214	0xbc801e66	-0.015639495
215	0xbe042417	-0.12904392
216	0x3d951024	0.07278469
217	0x3cc9d85c	0.024639301
218	0xbdb66f07	-0.089078955
219	0xbd91a6f5	-0.07111923
220	0x3e4cb2d2	0.1999009
221	0x3e4e7f44	0.20165735
222	0x3e3c746d	0.18403788
223	0x3db7f225	0.08981732
224	0x3c59320c	0.013256561
225	0xbd136e5f	-0.03599393
226	0xbdfbbedc	-0.12292263
227	0xbd08607f	-0.03329515
228	0x3dac6e56	0.084194824
229	0xbd8aae6c	-0.067715496
230	0x3e1c505f	0.15265034
231	0x3d3e2661	0.04642332
232	0xb9474194	-0.00019002549
233	0x3d8c79b8	0.068591535
234	0xbda60862	-0.08107068
235	0xbe4f2066	-0.20227203
236	0xbd2a858e	-0.041631274
237	0x3da74fde	0.0816953
238	0xbcf6861a	-0.030093241
239	0x3ccd557e	0.02506518
240	0x3e08447c	0.13307375
241	0xbedb422f	-0.42823932
242	0xbe533fba	-0.20629779
243	0x3e05881a	0.130402
244	0x3e9d1a9c	0.30684364
245	0x3e6c8cee	0.23100635
246	0x3db4375c	0.087996215
247	0xbe3d3ebf	-0.18480967
248	0xbd1a372b	-0.03765027
249	0x3e1aa225	0.15100916
250	0x3d5fcec3	0.054640543
251	0xbc88faed	-0.016721213
252	0x3bcc0502	0.006226183
253	0x3df77893	0.120835446
254	0xbc588289	-0.013214716
255	0x3d9decca	0.077111796

conv2.bias f4 [32]
0	0x3bb3deee	0.005489222
1	0xbea3172a	-0.3185361
2	0x3d262bee	0.04056924
3	0x3de96765	0.11396674
4	0x3db59881	0.088669784
5	0xbe8de04f	-0.27710196
6	0x3da47581	0.080302246
7	0x3e88f822	0.2675181
8	0xbdd9ede8	-0.1064108
9	0xbe5045f4	-0.20339185
10	0xbe96da82	-0.29463583
11	0x3e0d8b34	0.13822633
12	0xbdbf4b0b	-0.09340485
13	0xbda95218	-0.08267611
14	0x3e9d05d8	0.3066852
15	0xbd1429af	-0.036172565
16	0x3efb86aa	0.49126178
17	0xbec5d035	-0.38635412
18	0x3e8bead8	0.2732761
19	0xbe0d4a8a	-0.13797966
20	0xbdbeb3ba	-0.09311624
21	0xbe7dde60	-0.2479186
22	0x3f0ac2f4	0.54203725
23	0xbe9c61cb	-0.3054336
24	0x3eb24f31	0.34826043
25	0xbe35f71e	-0.17770049
26	0x3eabba93	0.33540782
27	0xbd59444a	-0.05304364
28	0x3d0e879e	0.034797303
29	0xbeaed0bd	-0.3414363
30	0xbc9e59b7	-0.019329889
31	0x3e53f529	0.2069899

fc.weight f4 [1, 32]
0	0x3b73e100	0.0037212968
1	0xb7bc225e	-2.242735e-05
2	0xbb1bb927	-0.0023761482
3	0xb9623c0b	-0.00021575407
4	0x3e61c413	0.22047453
5	0x3dd8e8b9	0.10591263
6	0x3adfeeac	0.001708468
7	0x3967d80d	0.00022110362
8	0x3a9779de	0.0011556705
9	0xba8248dd	-0.0009939928
10	0x3e85e5c1	0.2615185
11	0xbe153673	-0.14571552
12	0xbae6aced	-0.0017599143
13	0xbe85fa34	-0.26167452
14	0xbaa15c5b	-0.0012310849
15	0xbe821169	-0.25403908
16	0xbdf16838	-0.11787456
17	0x3d511c14	0.051052168
18	0xbe9c0754	-0.3047434
19	0x38208f7d	3.8280607e-05
20	0x3b2e567c	0.0026601842
21	0x3e98c257	0.2983577
22	0xbd846de9	-0.06466276
23	0xb94f942c	-0.00019796257
24	0xbe56be50	-0.20971036
25	0x3affd0be	0.0019517166
26	0xba64d5e5	-0.00087293825
27	0xbe82426d	-0.25441304
28	0x3ac55ac8	0.0015056962
29	0x3e95bd4e	0.2924599
30	0xb93dfdd9	-0.0001811901
31	0x3aa3d4b8	0.0012499308
