weights/2001/humidity_winter_2001.pth (torch, 5322 bytes, 5 tensors)

conv1.weight f4 [16, 3, 1]
000000 2b 9f c6 3e 5b 86 79 be ec 59 3f 3d fa 9d d5 be
       0.3879331 -0.24367659 0.046716616 -0.4172209
000010 18 92 6c bc 6b 7d 64 3e c7 81 51 be 02 ce a6 3d
       -0.014439128 0.22313468 -0.20459662 0.081447616
000020 56 01 1b 3d 35 58 c2 3e 9b f0 e8 bd 99 63 1a be
       0.03784307 0.37957922 -0.11374017 -0.15077056
000030 67 d6 af be 61 1e 02 3f b4 2e 06 bf a8 86 fd be
       -0.34343264 0.50827605 -0.52415013 -0.49516797
000040 d3 b2 10 3e 78 ac 5d 3e cc 22 9a be 26 ff e1 3e
       0.14130716 0.21647823 -0.30104673 0.44139975
000050 eb b9 a3 be 3e 34 89 be c8 e5 85 bd be 66 1d bd
       -0.31977782 -0.2679767 -0.06537968 -0.03842806
000060 3e d6 9b 3e 93 b6 a1 3e 95 73 1d bd e6 8f 96 bc
       0.3043689 0.31584606 -0.038440306 -0.018379163
000070 90 b0 13 3f a5 e4 c9 3e d7 b9 28 bd 73 fb a9 3b
       0.5769129 0.39432254 -0.041192856 0.005187446
000080 55 b9 fb 3b 5c 70 22 be 06 d5 1f bc a9 70 30 3e
       0.0076820054 -0.15863174 -0.009755379 0.17230476
000090 0d b9 06 bf f6 88 4b 3e 96 4f 12 3e 02 37 dd be
       -0.52626115 0.19876465 0.14288172 -0.4320603
0000a0 99 22 00 3f 12 00 34 3e c8 41 1c be 7d b9 4f 3c
       0.5005279 0.17578152 -0.15259469 0.012678501
0000b0 3b 6d e0 3d e2 e3 83 3d 73 ae 06 3d 04 f9 08 be
       0.10958334 0.064399496 0.03288121 -0.13376242

conv1.bias f4 [16]
000000 92 ac c5 bd ec 33 ed 3e 62 48 94 3e 38 fd e5 be
       -0.09652056 0.46328676 0.28961474 -0.44919753
000010 d4 8b 19 bf dd 9f 99 3e a1 93 29 bf 8a d3 d0 3b
       -0.59978986 0.30004779 -0.6624089 0.0063728737
000020 0c 5f 8c 3c ef b2 97 3d 16 97 ed 3e 70 c7 a0 3d
       0.017135166 0.07407176 0.46404332 0.0785054
000030 9d 33 58 3e 2c 05 b2 3d 08 0b ff 3e 28 ea 88 3e
       0.21113439 0.08692393 0.49813104 0.26741147

conv2.weight f4 [32, 16, 1]
000000 02 c9 f7 bd fa a8 20 be cb 58 4d be 85 74 9b 3d
       -0.12098886 -0.1568946 -0.20053403 0.07590584
000010 f2 59 a9 3d 86 1f 26 3d af 86 a4 3d 70 e3 42 3d
       0.08269109 0.040557407 0.08033501 0.047580183
000020 da 4a 40 3e e4 6a 64 bd 9e 0d 20 bd d0 bd 81 3e
       0.18778554 -0.055766 -0.039075486 0.25340128
000030 c3 9a 14 3e 29 4c 95 bd 11 79 07 be 57 f4 06 3d
       0.14512162 -0.07289917 -0.13229777 0.032947864
000040 2e 18 04 be 34 82 0d be 25 f3 0e be be dd 2d 3d
       -0.12899849 -0.138192 -0.1395994 0.042447798
000050 bd 08 10 be 56 be 9f 3b 6d fb 07 bd b7 b9 1c bd
       -0.14065833 0.0048749847 -0.033198763 -0.03826305
000060 83 38 09 3d d6 d4 31 be c1 3a 27 be 75 c6 d4 3d
       0.03350116 -0.17366347 -0.16331007 0.10389415
000070 7a c5 f7 bd fb aa 0f 3d da 5f 07 be ac be a2 bd
       -0.120982125 0.03507517 -0.13220158 -0.07946524
000080 7a bd 49 be a7 da 83 be 8f 1b f5 3d d0 6a 7d bd
       -0.19701186 -0.25752756 0.11968147 -0.061869442
000090 af 87 84 bd b1 c8 f0 3c 95 3f 16 3e 32 91 02 3e
       -0.06471192 0.029392572 0.14672692 0.127507
0000a0 f0 2c 07 be 48 98 1a be 49 57 03 bc d3 e0 27 3e
       -0.13200736 -0.15097153 -0.008016416 0.16394357
0000b0 05 f8 2f be 1f f7 90 3d 20 90 c7 bc 48 ba 1d be
       -0.17184456 0.070783846 -0.024360716 -0.15403092
0000c0 e0 97 d6 3d ee f6 68 3d 0e f0 b3 3d d9 9a 95 be
       0.104781866 0.056876116 0.08786021 -0.29219702
0000d0 cb 9f b1 3d 55 f8 39 bd 78 b3 0a bd fe ef 29 bd
       0.08673056 -0.045402844 -0.03386256 -0.04148864
0000e0 8e 68 47 3e 6b c8 a9 3e 7b 43 8e be c2 d0 1c be
       0.19473478 0.3316072 -0.2778586 -0.1531401
0000f0 46 80 3e be ac 38 49 3e 57 09 62 be 25 3c 2d be
       -0.1860362 0.19650525 -0.22073875 -0.16917475
000100 ae 39 7e be 01 f5 94 bd 1e 20 81 3b 0e 30 f9 bc
       -0.2482669 -0.07273293 0.0039405962 -0.030418422
000110 32 3f 8b be f3 e3 6c bd c9 4d 74 be ae e2 68 3e
       -0.27196652 -0.057834577 -0.23857798 0.22742721
000120 6b 4b b9 3d 0b 2d 3d be 69 58 ff bd 1d 7a 62 bd
       0.09047588 -0.18474214 -0.12468035 -0.055292238
000130 b4 c7 45 bd 7f 3d a5 be 11 3c 16 3e 8e 2a 16 be
       -0.048286155 -0.3227348 0.14671351 -0.14664671
000140 e3 9a 81 bd 11 f0 2c bd e8 ba 38 be 1d a9 7e be
       -0.063283704 -0.042221133 -0.18040049 -0.24869199
000150 b1 f9 48 bd 60 9c 8d 3a 43 d9 8a 3e 28 06 38 3e
       -0.04906625 0.001080405 0.27118883 0.17971098
000160 9b 5a a6 3e 2b c3 9a 3e 2e 22 7d 3d 86 fd 5b 3e
       0.32491 0.30227026 0.061800174 0.2148343
000170 1e 48 e2 bd 29 0e a2 3e 16 cb 75 3d ad 17 d3 3d
       -0.110489115 0.31651428 0.06000813 0.1030725
000180 13 2b 90 3d 9e b3 b1 bd 78 f0 56 3e 34 c0 3b be
       0.07039466 -0.086768374 0.20990169 -0.18335038
000190 ad ca 8c bd 24 d4 35 be c1 a7 84 be e7 1c d0 3d
       -0.06874595 -0.17756706 -0.25909236 0.10161763
0001a0 28 e3 43 be 4e 46 80 3d dc cf ff 3d fb d9 0d 3d
       -0.19129622 0.062634096 0.12490818 0.03463171
0001b0 65 60 84 bd 90 ba 4f be a2 33 22 3e 94 8c b0 bd
       -0.06463698 -0.20286012 0.15840009 -0.08620563
0001c0 f0 da 40 bc aa 0f 4a be 40 92 c7 3d a7 cf 6c 3e
       -0.011770949 -0.19732538 0.09744692 0.23126088
0001d0 91 73 08 be 11 54 0f 3e d1 a0 3a 3d a7 8f 2a bd
       -0.13325335 0.13996913 0.045563523 -0.041640904
0001e0 9d 84 ca 3d c2 7f b8 3c 3e 86 10 be 78 28 37 be
       0.09888575 0.022521857 -0.1411371 -0.17886531
0001f0 5a 67 8e 3d 3d 62 21 3d 85 3c dd 3d e7 f3 1b 3e
       0.069533065 0.039400328 0.10802559 0.1522976
000200 a2 bf f8 3d 2d 03 00 3e 2e 8f 11 be 72 9e 55 be
       0.12145926 0.12501211 -0.14214775 -0.20861223
000210 49 cc 37 be 4a 96 40 3e 2f 00 eb 3a a5 99 22 3d
       -0.17949022 0.1880733 0.0017929132 0.039697308
000220 1e c5 4c be 6c 19 98 bc ab af 95 bc a3 ea 9a 3c
       -0.19997069 -0.01856681 -0.018272242 0.018910712
000230 cb 45 c0 3c ee 34 8d bd f2 58 a1 3d 6f 05 e3 bd
       0.02347078 -0.06894861 0.07878293 -0.11085021
000240 29 d2 8f be 5d 39 e2 bd d4 a4 65 3c 01 9e b5 bc
       -0.28090027 -0.110460974 0.014016349 -0.022170069
000250 1e 8f 4a be 34 27 19 3e 4e ad c9 bd ff d5 fb 3d
       -0.19781157 0.14956361 -0.09847508 0.12296676
000260 95 9b a5 bd f1 ea ac bd b2 23 51 be d6 5e 01 be
       -0.080863155 -0.08443249 -0.20423773 -0.12633833
000270 80 49 99 bd 8a 35 79 bd 3a 58 cf bd 75 29 95 3d
       -0.07484722 -0.060842074 -0.1012425 0.07283298
000280 8a ba 2a 3e e8 f3 a7 3c fd 05 97 bb 29 a8 a7 bd
       0.16672722 0.020502046 -0.004608868 -0.08186371
000290 34 d4 ee 3c 09 7d 82 3e ea 12 71 be cd db 1f 3d
       0.02915392 0.2548602 -0.23542371 0.039027978
0002a0 cc a3 8b bd da b7 74 be ee 4e 6e 3e 14 f2 3e bd
       -0.06818351 -0.23898259 0.23272297 -0.046617582
0002b0 54 3e 3c 3c 0b e0 ad be 22 39 9e be 71 41 a9 bd
       0.01148947 -0.33959994 -0.30902964 -0.08264435
0002c0 12 48 d6 bd dc 1b 25 be 53 52 a9 bd ca cf 8c 3d
       -0.10462965 -0.16123909 -0.08267655 0.0687557
0002d0 84 1e 3e 3c 82 ec a6 3c 59 5f 0b be 05 95 3d be
       0.011603955 0.020376448 -0.13610591 -0.18513878
0002e0 b1 03 2d be 8a 44 80 3b 91 48 b3 3d 1a 59 0a 3e
       -0.1689594 0.0039144205 0.08754075 0.13510552
0002f0 7e f0 86 3d 36 4c d4 bc ba 2a cb 3d a8 71 27 be
       0.06588839 -0.025915246 0.09920259 -0.1635195
000300 20 37 15 3e e9 69 92 be d1 34 00 3d a1 30 8c 3d
       0.1457181 -0.28596428 0.03130037 0.06845213
000310 6e 6d 17 be 03 7c 55 bd f1 cd f0 3d e5 5b ba 3d
       -0.14787838 -0.05212022 0.1175803 0.09099559
000320 62 08 38 be d4 e3 76 be c6 17 be bd e2 2d e8 3d
       -0.17971948 -0.24110347 -0.09281878 0.113368765
000330 9c 4d 27 3e 7c 4c 7e bd db 0b f3 bc 5f d8 4f 3d
       0.163382 -0.06208466 -0.029668739 0.050743457
000340 11 2c 0e bc c1 b0 95 3e 2c 65 39 be 38 1e 60 be
       -0.008677498 0.29236415 -0.18105 -0.21886528
000350 26 60 f5 bd be a3 c4 3d 0d 9c 47 be 01 fe 9b bd
       -0.119812295 0.09601544 -0.19493122 -0.07616807
000360 35 29 2a be 83 0a 9e 3e 78 4f 1c 3d 5d f5 3e 3e
       -0.16617282 0.30867395 0.038161725 0.18648286
000370 bd 3c 37 be 89 ad 2b 3e b1 8e a2 3c 6f 97 3e 3d
       -0.17894264 0.16765417 0.019843431 0.046531137
000380 17 f0 0c be 9d 74 9d 3c 7f 55 84 3e 1e f6 96 be
       -0.13763462 0.019220645 0.25846478 -0.29484648
000390 69 0e 64 be 1e 56 5e bd 39 88 21 3d ee d5 b9 bd
       -0.22271122 -0.054281346 0.039436553 -0.09074007
0003a0 22 f9 82 3e 2c c2 58 3d c5 40 5d b9 4f 74 d9 bd
       0.25580698 0.05291955 -0.00021100331 -0.10617887
0003b0 6e 22 8c 3e f6 4c 85 3d 5e e4 16 be 86 79 5f 3d
       0.27370018 0.0650882 -0.14735553 0.054559253
0003c0 26 0c fe bd 40 65 8e 3e 32 81 83 be d2 aa c7 bb
       -0.12404661 0.27811623 -0.25684506 -0.0060933614
0003d0 0a 93 67 3d ea 11 5a 3d b1 c1 1d bc d3 38 63 3d
       0.05653671 0.05323974 -0.009628699 0.055474114
0003e0 95 78 3b be 5a 90 cf bd 89 50 11 bb 0c 95 9a be
       -0.18307717 -0.10134955 -0.0022173247 -0.3019184
0003f0 57 60 81 bd fd 03 b1 bd 32 8a 7c 3e fd b7 c0 bc
       -0.063172035 -0.08643339 0.24662092 -0.023525232

conv2.bias f4 [32]
000000 db b8 56 be 14 46 40 bd 7d 13 9f 3d 61 f4 f3 bd
       -0.20968954 -0.04694183 0.07767389 -0.11911846
000010 fc 41 90 bd 12 94 07 bd 5a 40 7c be 90 4e e4 3b
       -0.070438355 -0.033100195 -0.24633923 0.006967373
000020 25 63 e9 3d 0b 67 e6 3c a8 6a 23 3e 89 d5 2e be
       0.113958634 0.028125307 0.15958655 -0.17073645
000030 7d 75 42 bd 17 de 70 be 12 c7 e8 bd 7e 5b 68 bc
       -0.047475327 -0.2352222 -0.11366095 -0.01418197
000040 e5 ee 13 3d 95 f7 fd bc 07 d2 dc bd 09 9c 15 be
       0.0361165 -0.031001845 -0.10782247 -0.14610304
000050 ce a6 42 3d 93 ff 52 be df 61 1b 3d 7c c2 9e 3d
       0.04752236 -0.20605306 0.037935134 0.07751939
000060 48 66 ca bc ff 33 10 3e 9e 6c 85 3e 4f 67 e2 3d
       -0.024706975 0.14082335 0.2605943 0.11054861
000070 8a 02 3a be 4e c3 bd 3d 51 6c cd 3d be 73 44 3d
       -0.18165031 0.09265767 0.10030425 0.047961943

fc.weight f4 [1, 32]
000000 e5 78 f3 3b 27 09 0d bd 9d da 6d bd 97 dc 23 3e
       0.0074301832 -0.034432556 -0.058069814 0.16002117
000010 bb 0d e3 bd 55 8d 22 3e 80 9b 92 bd a6 33 3f 3d
       -0.11086603 0.15874226 -0.071585655 0.046680115
000020 6c 97 99 bd c4 9a 79 bd ff bc 1c be 77 4d 87 bc
       -0.074995846 -0.06093861 -0.15306471 -0.01651643
000030 fe 9a 09 be 5a 46 aa 3d a1 e4 af 3d 1d 41 c8 bd
       -0.13438031 0.083142 0.085885294 -0.097780444
000040 79 ee fb 3b 2c 94 04 3e 11 00 20 3e 42 06 08 3e
       0.0076883403 0.12947148 0.15625025 0.13283637
000050 0e c2 bb 3d 5e ba cd 3d 3d bf 18 3e cd 0b 92 bd
       0.09167872 0.10045312 0.14916702 -0.07131157
000060 34 7d 11 be 01 ef 05 3e 41 3c 17 be 6c 31 fb 3d
       -0.14207917 0.13079454 -0.14769079 0.12265286
000070 7e 71 fa 3d 8c f4 ae 3d e3 cb 3a be 57 b0 0a 3e
       0.12228678 0.08542737 -0.18241839 0.13543831
